pretrained_models/best_CPR_dataset_checkpoint.model (torch, 127000 bytes, 16 tensors)

conv1.weight f4 [12, 3, 3, 3]
000000 4f bd 92 bc 0e f3 2d 3d 8b 3d cf 3d fa 36 a2 3d
       -0.017912535 0.042468123 0.1011916 0.07920642
000010 66 69 02 3d ab 21 2e 3e de 5b e2 3d c3 38 14 bd
       0.031838797 0.17005031 0.110526785 -0.036186945
000020 39 57 5d bc 98 a3 46 be c2 55 04 be f3 5e 40 bd
       -0.013509565 -0.19398344 -0.12923339 -0.04696555
000030 21 04 1f be 20 3f 82 3d 8a a8 f4 bc ee 1e 02 3e
       -0.15528919 0.063596964 -0.029865522 0.12707111
000040 10 a7 14 be 6d 69 12 3e e7 9e ec bd 8a 2d 92 bd
       -0.14516854 0.14298029 -0.11553746 -0.07137592
000050 61 48 0d 3e 6e d5 24 3e 69 61 d8 3d b2 f2 31 be
       0.13797142 0.16097042 0.105654545 -0.17377737
000060 fc c7 ed 3b 10 3f 28 3e 11 88 b4 bd ac d1 ed bd
       0.007256506 0.16430306 -0.08815015 -0.11612257
000070 e8 3d b3 bc 3e 80 32 3e 14 98 84 3d 01 d7 12 be
       -0.021880105 0.17431733 0.06474319 -0.1433983
000080 53 ad 1b 3e bc fb 7a bc f8 0f 41 be 27 56 0c 3d
       0.15202837 -0.015318807 -0.18853748 0.03426185
000090 6b e0 91 bd 95 5a 92 3b 07 a1 15 bd 06 ba 3e 3e
       -0.071228825 0.0044663646 -0.03653052 0.1862565
0000a0 02 68 b7 bd 02 e1 cc bc 4a c3 32 be 6f 41 1c bc
       -0.08955385 -0.025009636 -0.1745731 -0.009537085
0000b0 01 5d 9b 3d c0 51 97 bc e3 60 bd 3d 4d b7 f8 bd
       0.075860985 -0.018471599 0.09246995 -0.12144337
0000c0 e0 e4 be 3d c2 6b 89 bd 1e f3 02 be 94 0e 26 3e
       0.09320998 -0.06710006 -0.12788054 0.16216499
0000d0 1b d4 59 bd 9d 3f f8 3d 7d 36 e6 bd 34 0f 37 be
       -0.053180795 0.12121508 -0.112408616 -0.17876893
0000e0 cc 7a c4 bd a6 13 85 bd bf 25 89 bd 0b be ec 3d
       -0.09593734 -0.06497888 -0.066966526 0.11559685
0000f0 d6 11 45 be d7 ff 35 be a7 a5 5b bd 59 b4 d1 3d
       -0.19245085 -0.17773376 -0.053624775 0.10239477
000100 7d 52 3f be 70 29 e7 3d 4d 82 c6 bc a2 57 94 bd
       -0.1868381 0.112872005 -0.024232054 -0.07243277
000110 fd 3f de bd a0 27 3b be 8e e7 e6 3d e5 54 21 3d
       -0.108520485 -0.18276834 0.11274634 0.039387602
000120 a9 64 db bc cd fa bf bd ee e0 1a 3c 3c 97 32 be
       -0.026781397 -0.09374008 0.0094530415 -0.17440504
000130 e1 fd ee bd ca 28 11 be ff 87 02 3e 22 2e 31 be
       -0.11669517 -0.14175716 0.12747191 -0.17302755
000140 12 f5 0a 3e 94 24 1c be 0e cc cb 3d a0 b2 64 bd
       0.1357005 -0.15248328 0.0995103 -0.055834413
000150 33 42 19 be 7f c1 8d 3d 49 27 ce bd 3a 26 c5 3d
       -0.14966659 0.06921672 -0.10066087 0.09626432
000160 27 4a 4e bc a2 66 75 3d c0 f6 1a bd c6 b1 e1 bd
       -0.0125909215 0.05991233 -0.037832975 -0.11020236
000170 7c f8 87 bc db df 35 bd 1f b4 1a 3e 6c 1a 0e bd
       -0.016597979 -0.04440294 0.15107773 -0.034693167
000180 4d 1e 7c bd 6d b6 99 3c 42 ed c5 bd 90 b1 11 3e
       -0.061552335 0.018763745 -0.09664394 0.14227891
000190 15 ff f2 3d 16 2c b9 3d 0f 5e 33 3e cc 52 03 3e
       0.11865059 0.09041612 0.1751635 0.12824553
0001a0 fb 91 90 bd 96 04 1e 3e d9 72 d4 3d bd e1 96 3d
       -0.070590936 0.15431437 0.10373468 0.07367275
0001b0 80 46 0e be 2a 9d 12 3e 6e 43 14 3e 17 cf cd 3a
       -0.13894081 0.14317766 0.14478847 0.0015701976
0001c0 41 c2 ca bd 8b 2f b2 3d 72 20 50 be 66 27 dd bd
       -0.09900332 0.08700474 -0.20324877 -0.1079853
0001d0 96 25 94 3d a3 21 35 bd d7 12 25 bd 7c 94 e3 bd
       0.072337314 -0.04422153 -0.04030117 -0.111123055
0001e0 09 94 35 bd b4 68 d3 bd 4e 25 70 bc c8 81 5b be
       -0.04433063 -0.10322705 -0.014657332 -0.21436226
0001f0 f0 c8 82 bd c8 ce 32 be d7 82 08 3d a6 1b 0b be
       -0.06385982 -0.17461693 0.033327904 -0.13584766
000200 88 1d bc bd 44 1d ad bd c9 c7 d2 bd 83 8b 2c 3a
       -0.0918532 -0.084528476 -0.10292012 0.0006582068
000210 fc 17 1b 3e ae 62 3d be 2f 44 e2 3d db 5e dd 3d
       0.15145868 -0.18494675 0.11048161 0.10809108
000220 97 e5 92 3c 72 41 11 3e ae 98 e6 3d 9e 32 75 3d
       0.017931743 0.14185122 0.1125959 0.059862725
000230 9e 6b dc 3d a7 13 ec 3d ae e7 66 bc 19 c9 bf bd
       0.10762714 0.11527186 -0.014093323 -0.09364528
000240 b2 a6 22 3d 78 db 2e bd 90 8a 5d 3e f4 3d 33 3d
       0.039709754 -0.04268977 0.21634889 0.043760255
000250 81 44 60 bd 64 f8 32 3e 64 73 23 3e 7d 94 26 3e
       -0.05475283 0.17477566 0.15961987 0.16267581
000260 c1 51 3a 3e 11 15 11 3d 8b e0 48 3e ea 3c 1c be
       0.18195249 0.03542048 0.19616906 -0.15257612
000270 91 50 5a 3d a9 e6 4a be 7e 5f d6 3d 32 54 ce bd
       0.05329949 -0.19814552 0.104674324 -0.10074653
000280 23 17 1c be 11 27 01 bd f8 cd ec 3d 4b 6d 40 bc
       -0.15243201 -0.031531397 0.11562723 -0.0117448075
000290 d2 c9 2a be da 7d 21 be 30 3c b3 bd eb e9 2a 3e
       -0.16678551 -0.15770665 -0.08751714 0.16690795
0002a0 f5 e6 2b be cc 62 75 bd 81 e8 30 3d cb d1 e5 bd
       -0.16787322 -0.059908673 0.043190483 -0.112216555
0002b0 2a a0 92 bc b5 35 65 3d 66 49 cd bd 0e 9a da bd
       -0.017898638 0.055959422 -0.10023765 -0.10673915
0002c0 e7 7c 3a 3d ab b9 4c 3d 85 ec f4 3d a2 d8 70 3c
       0.045529272 0.049981754 0.11959175 0.014700087
0002d0 f0 1e e5 3d 44 77 c5 3d cc 66 44 3e 91 66 d3 3d
       0.111875415 0.09641889 0.19179839 0.10322297
0002e0 9c 66 55 3d d5 f7 24 bd ee 15 3c be 5a 11 8b 3d
       0.05209981 -0.040275414 -0.1836774 0.06790419
0002f0 cb 45 d9 bd 39 d7 cc 3d a0 67 78 3d 86 41 ec 3d
       -0.10609015 0.10001988 0.0606457 0.11535935
000300 4f 86 03 3c 06 5e db bd 43 98 ad 3d ff da 15 be
       0.008027627 -0.10711293 0.08476307 -0.14634322
000310 72 c6 fc bd 7d 1a 3a be 5c ef 0c 3e f2 2d f2 3b
       -0.12342538 -0.18174167 0.13763183 0.007390731
000320 95 17 f3 3c 53 17 67 3c 21 52 0e 3e 42 39 8e 3d
       0.02967433 0.014104682 0.13898517 0.06944515
000330 41 69 45 be 11 6a 6b bd 30 06 51 bd bb d3 a9 3c
       -0.19278432 -0.0574742 -0.05103129 0.020730844
000340 52 06 c3 bd 6f d1 22 be f2 ac 3a be e4 d2 10 3e
       -0.0952269 -0.15900205 -0.18230036 0.14142948
000350 4b bd 30 3e f6 23 45 be 1f ba 2b 3e ea 0b 17 3e
       0.1725971 -0.19252 0.16770218 0.14750639
000360 90 99 5d bd 23 62 05 be 7b df 34 3e 5f 05 b6 3d
       -0.054101527 -0.13025717 0.17663376 0.08887743
000370 f8 50 a2 bd b9 4b de bd 4b b8 d7 bd 5b 2b f7 3d
       -0.079256 -0.10854287 -0.10533198 0.12068816
000380 fb 45 08 3e 46 f9 b1 3d 08 8e 61 3c 64 40 94 3d
       0.13307945 0.08690123 0.013766773 0.07238844
000390 ea 70 e1 39 a5 e0 92 bd f4 2a 21 3b f2 53 79 3d
       0.00042999472 -0.07171754 0.0024592252 0.060871072
0003a0 14 4d 0b bc a7 cb 2d 3e 87 61 b6 bd d6 71 6e 3d
       -0.008502264 0.16972218 -0.089053206 0.05821403
0003b0 37 84 7c 3d 50 0a 08 3e a9 c3 01 bd 29 7e 0f be
       0.061649527 0.13285184 -0.031680737 -0.1401297
0003c0 91 5d 34 3d 62 7b 41 3d 33 1b c2 3d 74 88 06 3e
       0.044034544 0.047236808 0.09477844 0.1313799
0003d0 54 bb 0f 3e 3a e4 b1 3d 6f 30 22 3e cb 58 4d 3e
       0.14036304 0.08686109 0.15838788 0.20053403
0003e0 eb 9d b0 3d ee 6b 71 bc d1 81 ff bc d1 da c1 bd
       0.086238705 -0.014735205 -0.031189831 -0.09465564
0003f0 2b 18 08 be 6d 57 35 3d 5b dd 19 be d9 01 9f bd
       -0.1329047 0.04427283 -0.15025847 -0.07764024

conv1.bias f4 [12]
000000 7f c7 c4 3c fa c6 ae b9 03 2f 53 ba 4d a7 26 b9
       0.024020908 -0.00033336115 -0.00080560165 -0.00015893318
000010 3c f5 bc bc 61 47 d1 bb ee 8d ff 3b 67 5f aa ba
       -0.023066156 -0.006386683 0.0077989018 -0.0012998403
000020 fd c4 ba 38 e2 69 0f b6 c0 33 dd b8 d8 b5 af b8
       8.905863e-05 -2.1370292e-06 -0.000105477404 -8.378521e-05

bn1.weight f4 [12]
000000 f5 4b 80 3f 4a f0 7f 3f 8a 28 81 3f cb 63 7f 3f
       1.002318 0.99976027 1.0090497 0.99761647
000010 4b 5d 81 3f aa 56 80 3f 08 f7 7e 3f 57 62 80 3f
       1.0106596 1.0026448 0.9959569 1.0030011
000020 4c 2d 7e 3f d9 27 7e 3f 6b fe 7e 3f 87 e9 7a 3f
       0.9928787 0.9927955 0.9960696 0.98012584

bn1.bias f4 [12]
000000 d0 65 ff 3b 07 bf a0 3b d2 71 14 bd 22 24 6b 3c
       0.0077941194 0.0049055847 -0.03624136 0.014351876
000010 f3 ed c2 bc 33 01 97 3c 89 77 dd bb 5c bd 47 3c
       -0.023795104 0.018433189 -0.0067586345 0.012191143
000020 cd 47 a8 bc 09 33 86 3c f0 a8 d4 bc ba 35 44 bc
       -0.02054205 0.016381757 -0.025959462 -0.0119757

bn1.running_mean f4 [12]
000000 6d a6 aa bc 07 7c ff 3c 15 ce 06 3e 18 d7 27 3e
       -0.020831311 0.03118707 0.13164552 0.16390646
000010 95 66 00 3d b9 eb 7b be 05 86 f5 3d 83 5d 26 3d
       0.03134783 -0.2460164 0.11988453 0.040616523
000020 b2 a0 d1 bc ef aa b0 bd 25 6b df 3c ce 47 f0 bd
       -0.02558932 -0.08626353 0.02727277 -0.11732446

bn1.running_var f4 [12]
000000 2c ae 5e 3d 38 d7 89 3c 6e 43 83 3f 12 31 16 3e
       0.054365322 0.016826257 1.0254953 0.14667156
000010 ab 77 33 3f b0 1b 1e 3f bb e9 de 3c 7e 88 7f 3d
       0.70104474 0.61761 0.02721106 0.06238603
000020 8b fd 0a 3e e8 81 8b 3d b6 60 18 3e 03 dd 42 3d
       0.13573281 0.06811887 0.14880642 0.047574054

conv2.weight f4 [20, 12, 3, 3]
000000 81 b8 84 bd 4b e1 3e bd d5 c8 9a bd 44 1b 79 3d
       -0.06480504 -0.046601575 -0.07557837 0.06081702
000010 c9 1b 42 3b 69 c2 a0 bd 4e d9 c4 bc d4 8d 64 3d
       0.0029618612 -0.07849581 -0.0240294 0.05579932
000020 7a 93 0f bd 9b d1 8d bd d5 bc 24 bc f7 2a e3 3c
       -0.035052754 -0.06924745 -0.010054787 0.027730448
000030 bc 8c 83 bd 43 36 96 bd 20 41 50 3d 8b b3 9c bc
       -0.06423327 -0.07334568 0.050843358 -0.019128582
000040 43 d8 87 3c 34 db 87 bd 5c ff 93 3d 33 66 6a bd
       0.016582614 -0.066336066 0.0722644 -0.05722637
000050 e4 15 73 bb ba cc eb bc 2f e9 93 bd 3b 7b b7 3b
       -0.0037091905 -0.028784145 -0.072222106 0.005599407
000060 2d 03 a3 bc 6c 79 95 bd 15 10 65 3d da ca 5d bd
       -0.019898975 -0.0729855 0.05592354 -0.054148532
000070 c9 fa 2d bd 94 2d c4 bd 01 46 8b 3c bd e6 65 bd
       -0.042475495 -0.09579006 0.017001154 -0.056128252
000080 54 7a 87 bd 30 0d 2c 3c dc 89 08 bb bf 1f 37 3d
       -0.06615129 0.010501191 -0.0020834124 0.04470801
000090 af 3f c3 bd 1c fa a0 bd 90 a5 af 3d bf 47 ba bc
       -0.09533631 -0.078602046 0.085765004 -0.02273929
0000a0 75 08 71 bd 7e bc 97 3d cf 2e b8 bd b3 8c 9e bd
       -0.058845956 0.07408999 -0.08993303 -0.0774168
0000b0 e3 4d 6d bd c3 fd a3 3d c0 4f b3 3c 06 0f b1 3d
       -0.057935607 0.080073856 0.021888614 0.086454436
0000c0 0a d6 57 3d 0f 1d 99 3d 6c f7 15 bd 98 b8 be bd
       0.052694358 0.074762456 -0.036612913 -0.09312552
0000d0 4b 45 8f 3d be a0 81 3d b9 63 2c bd c7 0b 3e bc
       0.069956385 0.06329487 -0.04208729 -0.011599488
0000e0 84 e1 a3 3d b0 16 a2 bd 1a 48 d4 3c ec 8d 14 3d
       0.08001998 -0.079144835 0.025913287 0.03626816
0000f0 92 61 f3 3b 5f 17 09 3d 4e 3e a8 bd e8 14 88 bd
       0.007427403 0.033469554 -0.08215009 -0.066446126
000100 57 c4 ba bd 26 fd 4a bd 6c c8 d2 bd 76 bc 2e 3d
       -0.0911948 -0.049557827 -0.10292134 0.0426602
000110 59 0d 34 bd 50 60 b1 3d 43 02 d8 bd d7 99 fe 3c
       -0.04395804 0.08660948 -0.105473064 0.031079216
000120 8d b0 80 3d 9a e8 43 3c 4b 46 29 bc ca 47 18 3c
       0.062836744 0.011957312 -0.010331701 0.00929446
000130 f8 51 89 bd 7d 13 5e 3d 35 4b 05 bd bd 7a e1 3c
       -0.067050874 0.054217804 -0.032542426 0.027524346
000140 b3 8f 14 bd ed 10 3f bd 83 24 a2 bd e9 a9 80 3d
       -0.036269855 -0.046647 -0.0791712 0.06282408
000150 7a a7 e4 3c 3d 1e e0 bc fb 67 bf bd bb 2c ed 3c
       0.02791189 -0.027358169 -0.093460046 0.028951993
000160 d2 c6 bd bd 23 26 9d 3d 1d 84 7a bd 1a 39 93 3d
       -0.092664376 0.076732896 -0.06116115 0.07188626
000170 52 49 ff 3b 19 8a 9a bd 46 c3 e4 3a 85 bc 69 3d
       0.007790723 -0.07545871 0.0017453216 0.05706455
000180 19 ea db bc 60 6c af 3b bf 92 cf bd cb 53 89 bd
       -0.026845025 0.0053534955 -0.101354115 -0.06705435
000190 54 fd 64 3d f2 99 65 bd 91 a7 b9 bc 34 52 8f 3d
       0.055905655 -0.056055017 -0.02266291 0.06998101
0001a0 82 d8 5d bd c1 23 ce bc 80 19 ab 3d c3 fd 16 3c
       -0.054161556 -0.025163533 0.08354473 0.009215775
0001b0 07 c9 4b bd 9b 8e 07 bd b7 bf ea 3c 2d 35 ad bd
       -0.04975226 -0.033094984 0.02865587 -0.08457408
0001c0 24 18 59 3c 6a 14 87 3d 7f 9f 91 3d 9f 2a eb 3b
       0.0132503845 0.065956905 0.071104996 0.0071767117
0001d0 fa 04 95 3d 5a ec c4 3b 1f 76 93 3c 80 97 bc bc
       0.0727634 0.0060096206 0.01800066 -0.02302146
0001e0 73 73 83 bd 7e a3 85 3d c7 2e 29 3d 52 8c 94 bd
       -0.064185046 0.06525324 0.041304376 -0.072533265
0001f0 72 97 9a bd ec 84 a7 bd 2b 72 9d 3d da 7f 63 bd
       -0.07548417 -0.0817965 0.076877914 -0.05554185
000200 47 a5 10 3d 3a 46 c3 bd 60 a1 ff 3c e9 58 9c bd
       0.03531387 -0.09534879 0.03120488 -0.07634146
000210 9e a1 ab bd 99 5c 99 3d ec 96 d3 bc 30 a7 81 3c
       -0.083804354 0.07488365 -0.025828801 0.015826792
000220 fd 89 f3 3c 6c 00 92 bc db f9 55 3d 28 a4 a5 3d
       0.029728884 -0.017822467 0.052240234 0.08087951
000230 8e e1 23 bd 86 43 00 bd df 9b 0c 3d 96 b9 44 bd
       -0.040010028 -0.031314395 0.034328338 -0.04802855
000240 46 0f b9 bd 45 78 8e bd 00 97 81 3d ad 89 6f 3d
       -0.09036116 -0.06956533 0.06327629 0.058480907
000250 96 92 a7 3c 0b 28 56 3d 96 74 ed bc c9 fc 2d 3d
       0.02045564 0.05228428 -0.028986257 0.042477403
000260 b4 f4 45 bd 03 92 b0 bd 55 be 99 bb c5 57 8c bd
       -0.04832907 -0.086215995 -0.004691879 -0.06852678
000270 24 cd a0 3d 04 bf a0 3d 41 6e 44 3c 16 a4 b3 bd
       0.078516275 0.07848933 0.011989177 -0.08771531
000280 b4 a6 89 3c c1 a5 ae bd cc 5f 93 bc 0b fa bf bd
       0.016803123 -0.08527709 -0.017990015 -0.09373864
000290 99 28 a7 bd 52 94 a6 bc a5 27 8c bc cf 8f a8 bd
       -0.0816204 -0.020334397 -0.017108748 -0.08230554
0002a0 94 d0 5e 3d ae bc bc bd 4c 41 6b bc 9d 6d 6a bd
       0.054398134 -0.09215675 -0.01435883 -0.05723344
0002b0 46 1c 27 3d c1 ca 1d 3d a2 8f 85 bd 1b bb 00 bc
       0.040798448 0.03852344 -0.065215364 -0.007857109
0002c0 85 27 8f 3d 38 d6 2f bd 77 f9 5e bd 61 09 62 3d
       0.069899596 -0.042928904 -0.054437127 0.055184726
0002d0 e4 ab 94 bd 09 9c 90 bd 90 18 d6 bc 99 b0 bf ba
       -0.07259348 -0.07061011 -0.02613476 -0.0014624774
0002e0 3c 92 89 bd cb 6c 0f 3d 7f d7 92 bd 8d 7a 35 bd
       -0.06717345 0.035015862 -0.07170009 -0.044306327
0002f0 fe e3 19 3d f1 d0 52 bd e0 09 b7 bd 98 74 89 3d
       0.037570946 -0.051468793 -0.089374304 0.067116916
000300 4a 90 ca bd 96 fc f6 3c e3 ab a1 bb c3 dd 99 3d
       -0.09890802 0.03014974 -0.0049338206 0.07513001
000310 0d 50 9b bd 3e 50 65 bd 0f 5b 53 bd 71 57 ac 3d
       -0.07583628 -0.055984728 -0.051600512 0.084151156
000320 98 12 05 bc 68 48 34 bc 0b 3f b5 3d 5d cf ac bd
       -0.008122109 -0.011003591 0.08849915 -0.08437989
000330 06 9a 84 bb 4c 7c 49 bd 09 d0 63 3d 07 06 6d 3d
       -0.0040466813 -0.049190804 0.05561832 0.057867076
000340 70 c9 57 bd 12 49 79 bd d6 2e 47 3d 78 05 6a bc
       -0.05268234 -0.0608607 0.04862865 -0.01428353
000350 2a 41 22 bd 7e 9c 8a 3d 06 23 3d bd db 67 b2 bd
       -0.039612927 0.0676813 -0.04617598 -0.08711215
000360 75 64 a1 3c 73 87 42 3d bd 10 88 bd dc c9 9f bd
       0.019701222 0.047492456 -0.066438176 -0.078021735
000370 0c 89 1d 3d 11 60 a7 bc e2 a4 41 3d 79 84 6b bd
       0.038460776 -0.02043155 0.047276385 -0.057499383
000380 a2 59 87 3d 43 94 5d 3d f4 83 91 3d 4f 81 c5 bd
       0.06608893 0.05409647 0.07105246 -0.09643804
000390 5a a5 2a 3d 11 21 d4 bd ff 1d ad bd d8 e8 83 3d
       0.041661598 -0.103578694 -0.08452987 0.06440896
0003a0 5d c5 63 3c 84 04 01 bd 19 b1 9e 3c 6d 36 9d 3d
       0.013902036 -0.031498447 0.019371556 0.076763965
0003b0 4d f8 c2 3c a7 37 9a bc c9 7b ad bc 58 78 98 3d
       0.02380004 -0.018825365 -0.02117719 0.07444829
0003c0 bb 02 64 bd 1d be 21 bd 99 0c 8a 3d 1e bf 75 3d
       -0.055666666 -0.039487947 0.06740684 0.059996717
0003d0 cd 99 ab 3d 20 85 a4 bd 3e 64 81 bc 85 15 a0 bd
       0.083789445 -0.08033204 -0.01579487 -0.078166045
0003e0 15 4f bb bb 0e f2 68 3d 8d 8d 89 3c 01 01 0b 3d
       -0.0057162144 0.056871466 0.01679113 0.033936504
0003f0 f2 3b 84 3d 05 da ab bd 06 93 a5 bc 74 ab 6e 3c
       0.06456746 -0.08391193 -0.020211708 0.014567245

conv2.bias f4 [20]
000000 8a 7c be 3c 80 30 04 bd 00 61 e1 bc 39 98 00 bd
       0.023252744 -0.032272816 -0.027512074 -0.03139517
000010 29 c1 4f 3d c0 f7 af bc 0a a1 8c bd 45 05 d5 3c
       0.05072132 -0.021480441 -0.06866653 0.02600349
000020 ee cd a0 bc 8e 1c 4f 3d ea 7c 97 3d 2d bb 80 bb
       -0.019629445 0.05056434 0.07396872 -0.003928563
000030 2b 8b 19 3d 73 e2 a4 3d 31 0b a1 bd ad f2 7c bd
       0.037486237 0.08051004 -0.07863463 -0.06175487
000040 2b ce d6 3c 36 34 e3 bc 04 49 d0 bd 42 9a 3b bd
       0.026221355 -0.027734857 -0.101701766 -0.04580141

conv3.weight f4 [32, 20, 3, 3]
000000 0b e2 aa 3c e3 1e 13 bc dc 3d 88 3d c1 c5 90 3c
       0.020859739 -0.008979532 0.06652424 0.017672421
000010 60 b8 96 bd c0 82 8b bd 22 75 82 3c ee 6c 84 3c
       -0.073593855 -0.06812048 0.015924994 0.016165223
000020 c0 24 0e bc f9 b7 e2 bc 69 43 da bc 41 98 8e bd
       -0.008675754 -0.027675616 -0.026643472 -0.06962634
000030 b4 f2 90 bc 98 a3 64 3d 4e ac e2 bc 46 4c 94 bc
       -0.017693855 0.055820078 -0.027670052 -0.018102776
000040 94 34 1a bd 72 6f 2c 3d 86 20 12 3d 0b c8 20 bd
       -0.0376478 0.04209847 0.035675548 -0.039253276
000050 de 95 34 3d e1 59 be 3c 47 8d a6 bc 7c e1 f2 bb
       0.044088237 0.023236217 -0.020331038 -0.0074121337
000060 ed 65 62 bd 94 5c f6 bc 84 46 93 bd 83 e2 c6 3c
       -0.055272985 -0.030073442 -0.07191184 0.024277931
000070 a7 4a 16 bd de 62 76 bd a2 87 49 bd 61 87 35 bd
       -0.036692288 -0.06015288 -0.049201615 -0.04431856
000080 7c 70 43 bd e0 35 7e 3d 25 26 56 3d 43 08 bc 3c
       -0.047714695 0.062063098 0.05228247 0.022953158
000090 8a fb 1a 3d 8b 27 2b 3d bf f4 7b 3d 6e 19 0f 3c
       0.037837543 0.041785758 0.061512705 0.00873409
0000a0 6d 1d 6d bd 55 8a 98 3d 26 2f 7b bd 45 a1 0d 3d
       -0.05788939 0.0744826 -0.06132426 0.034577627
0000b0 e5 85 aa 3b 8f a3 17 3d a6 77 f5 3b 75 ee 80 3c
       0.0052039498 0.037021216 0.00749107 0.015738705
0000c0 86 91 95 bd 17 5a 70 3d 36 19 d7 3c da 70 b3 3c
       -0.07303147 0.058679666 0.026257139 0.021904398
0000d0 a9 20 e9 3c 71 6c 4e 3d f7 c0 3e bb 23 97 bb 3b
       0.028457956 0.050396387 -0.0029106715 0.005724804
0000e0 11 1a e8 bc 17 d4 66 bd 4c b3 bf 3b 6d 0c 16 3d
       -0.028332742 -0.05635461 0.0058502313 0.036632944
0000f0 4f e7 ac bc f3 96 ec bb 39 27 75 bd 0e 1a 84 bd
       -0.02110639 -0.007220143 -0.05985186 -0.06450282
000100 38 48 2c bd 1b 48 1b 3d 73 0f 9e 3c e2 cd 98 bd
       -0.04206106 0.037910562 0.019294476 -0.07461144
000110 8f 4e 86 3c 0d 3d 7f bc 7b ab 3d bd 68 9f 84 3d
       0.016394882 -0.0155785205 -0.046306115 0.06475717
000120 57 53 6c 3d 70 1a 1f bd 2d 97 4a 3d ce b9 6d 3c
       0.057696667 -0.038843572 0.04946058 0.014509631
000130 da 21 1b bd 22 d7 75 3c 16 69 1d bd 32 36 e0 3c
       -0.03787408 0.015004905 -0.038430296 0.027369592
000140 0e b7 d8 bc 78 0e b6 3c 13 a2 05 3d 3d cc 67 bd
       -0.026454475 0.022223696 0.03262527 -0.05659126
000150 1a 25 f5 3c c8 b8 99 3c 5c c8 bb bb 72 4b 72 3d
       0.029924918 0.018764868 -0.005730672 0.05915398
000160 af 06 e1 b9 49 c8 34 bd 2b 50 b7 3c d4 36 7b bd
       -0.00042920324 -0.04413632 0.022377094 -0.061331585
000170 78 8b d3 bc 44 ab 83 3d 04 af 65 bd 4c 70 e2 3c
       -0.02582334 0.06429151 -0.05607511 0.027641438
000180 1a 18 8e 3d 64 6e 7d bd bc 13 20 bd 57 16 bf ba
       0.06938191 -0.061872855 -0.03908132 -0.0014578801
000190 73 2a 95 bd 99 7c 53 3b 88 00 5a 3d b4 cc 3c 3c
       -0.07283487 0.003227031 0.053223163 0.011523414
0001a0 c5 db 21 bd a4 23 0d bd 4a fb 21 3d 10 be c1 bc
       -0.03951623 -0.034457818 0.03954629 -0.0236502
0001b0 83 30 32 bd ba f2 0c 3c 0e 72 3c bd 4e 35 7d 3c
       -0.043503296 0.008602792 -0.04600721 0.015454603
0001c0 1a 44 cf bc 56 89 1b 3b f8 98 be 3c 30 5c 0e bd
       -0.025301028 0.0023732982 0.0232663 -0.034755886
0001d0 ed bb 29 3c a6 4a ed bc 12 0a 92 3a 65 85 33 3d
       0.010359746 -0.02896626 0.0011141917 0.043828387
0001e0 a6 07 eb bc 1f 35 86 3d cf 6e 9b 3d ed fd ba 3c
       -0.02869017 0.06553101 0.075894944 0.02282616
0001f0 8b 9e 3d 3d 0a 91 a5 bc f7 ad 23 bd e8 93 e9 bc
       0.046293776 -0.020210762 -0.039960828 -0.02851291
000200 bf 6a 2c 3d 11 eb a6 bd be be 16 3d 07 c8 d1 3c
       0.04209399 -0.08150304 0.036803 0.025608076
000210 5a 26 e4 bb b4 ea 31 bd 0e 97 57 3c 89 a9 b5 3d
       -0.0069625797 -0.04343672 0.013158573 0.08870227
000220 7c c3 26 3d 8c c4 8b 3d 7e f9 77 3d 51 3b 98 3d
       0.040713772 0.06824598 0.06054067 0.07433189
000230 03 ac 38 bd 29 d6 87 bd 68 cf 37 bd 8c d9 e7 bc
       -0.04508592 -0.06632645 -0.044875532 -0.028301977
000240 e5 12 26 bd 4d 29 6e 3b 96 fa ed bc f4 e6 7c bd
       -0.040545363 0.0036340535 -0.029050153 -0.06174369
000250 9e c9 8d 3d 78 84 81 3d fb 33 e7 3c 1d c5 06 3d
       0.06923221 0.063240945 0.028223028 0.032902826
000260 5d 81 5b bc df 0e 65 bc 14 76 d3 3b 22 04 00 bd
       -0.013397542 -0.013980596 0.006453285 -0.03125394
000270 eb b3 25 bd cf b1 31 3d 55 ec 14 bc d1 71 49 3d
       -0.040454786 0.043382462 -0.009089549 0.04918081
000280 20 bb 40 3d 3e 49 58 bd 1a 0f 86 3c 42 e5 84 bd
       0.047053456 -0.052804224 0.016364623 -0.0648904
000290 ea 1b ff 3c ba 39 1c bd 0c 62 a9 3d 71 9b 19 bb
       0.03114124 -0.03814099 0.08270654 -0.0023438598
0002a0 9d dc 93 3d 4e 8f da bb 2c df d5 3c 6d d0 41 bd
       0.07219813 -0.0066699153 0.026107393 -0.04731791
0002b0 26 f7 41 bc da 32 84 3d 2f 78 09 bc aa 36 0d bc
       -0.01183871 0.06455012 -0.00839047 -0.00861899
0002c0 c6 79 ec bc a0 fb e5 3c 90 34 68 3d de 29 ab 3d
       -0.02886666 0.028074086 0.056690753 0.08357595
0002d0 77 e6 cd 3b ca 49 26 bd 89 52 50 bd fa 77 06 3d
       0.006283577 -0.040597714 -0.05085996 0.032829262
0002e0 3d 79 7c bd 2d 7a 6f 3c 14 54 23 3d 0a bb 41 3d
       -0.06163906 0.014616531 0.039875105 0.047297515
0002f0 14 9c 9a bd 96 af eb 3c d3 7e 7b 3c 8f ea 36 3d
       -0.07549301 0.02877025 0.0153500615 0.044657286
000300 d9 77 59 bd e7 4c 44 3d 4e 45 01 bd d9 2c 40 bc
       -0.05309281 0.047924902 -0.031560235 -0.0117294425
000310 b2 6a 1d 3c ba 81 64 bd bf 21 a4 3c 7e 03 6e 3c
       0.009607958 -0.05578778 0.020035623 0.0145272
000320 3a 47 45 bb 73 fe 5f bd 4e e2 4f 3d a1 06 50 bd
       -0.0030102269 -0.05468602 0.05075293 -0.05078757
000330 78 ea 83 3d 0b 83 5e bd a8 9b 48 3b a3 22 bf bc
       0.06441206 -0.05432419 0.0030610356 -0.023331946
000340 30 38 bf bc fe 19 72 bd a5 38 87 bd 2e e0 d2 3c
       -0.023342222 -0.05910682 -0.06602601 0.025741663
000350 6e f4 ff 3b 8a b2 86 3d 51 03 d3 3b fe dc c1 bb
       0.0078111207 0.065770224 0.0064396043 -0.005916237
000360 39 e6 52 3c 75 11 6c bd e3 b5 34 bd 53 c8 40 bd
       0.012872272 -0.057633836 -0.044118773 -0.047066044
000370 77 a9 9c bc 11 46 3d 3d d8 a5 4c bd a9 16 06 3c
       -0.019123776 0.0462094 -0.04996285 0.008184114
000380 3a 3b aa 3d 01 9f 50 bd 07 60 64 bd 31 19 bc ba
       0.08312078 -0.050932888 -0.05575564 -0.0014350769
000390 e7 ff 6b bd 29 c1 1d bd 0b 6b 93 3a 47 b1 9d bc
       -0.057617094 -0.03851429 0.0011247111 -0.019249571
0003a0 20 a8 9b bd 47 3f 9f 3c 09 9f 76 3d 23 86 4b 3b
       -0.07600427 0.019439353 0.06021026 0.0031055294
0003b0 fb 4b 92 bc ed b6 5c 3c 4d e7 6d bc 8d 62 3f 3c
       -0.017858496 0.013471347 -0.014520478 0.011681211
0003c0 53 b5 3f 3d 23 58 86 3d d8 63 0c 3d c3 03 c7 39
       0.046803784 0.065597795 0.034274906 0.0003795904
0003d0 89 d3 b9 bb e4 d1 47 3d 9e 14 0d bd 61 d7 08 bc
       -0.005670969 0.04878415 -0.03444349 -0.008352132
0003e0 6b 06 62 3d 3c 50 3a 3d cb 9d c3 3c 1a 92 99 3d
       0.055181902 0.045486674 0.023878952 0.0749857
0003f0 fc 54 32 3d 37 cd 93 bd e7 b6 9a 3c b1 3f 66 bd
       0.04353808 -0.07216876 0.018886043 -0.056213085

conv3.bias f4 [32]
000000 7a c5 fe b6 a4 c2 50 39 0d 5e 21 38 dd b6 1b b9
       -7.592779e-06 0.00019908935 3.8472983e-05 -0.00014850074
000010 fd 81 50 b8 20 16 0e 38 a6 8e 70 37 ea 75 5d 38
       -4.9712125e-05 3.3876044e-05 1.4338328e-05 5.2800322e-05
000020 d8 a9 c2 b8 af 04 f7 37 89 ed 9d 38 29 66 c8 38
       -9.282277e-05 2.9446875e-05 7.530588e-05 9.555772e-05
000030 f0 71 ff 39 5e c8 b6 b7 c3 16 34 b8 6a 0e 3f b7
       0.0004872228 -2.1789394e-05 -4.2936543e-05 -1.1387843e-05
000040 aa 18 08 b9 09 67 b6 37 b7 d0 0b 39 9e 8c 8e 39
       -0.00012979159 2.174407e-05 0.00013333825 0.0002718912
000050 e3 7b 3d b8 21 d9 ff 38 ca 10 b7 38 aa 4f 26 b7
       -4.517649e-05 0.00012199791 8.729247e-05 -9.912919e-06
000060 9a 32 7a 38 32 7d 6c 39 03 36 8e 39 97 ee 97 b8
       5.965177e-05 0.00022553353 0.00027124592 -7.244682e-05
000070 04 6f d8 b7 e4 c6 4b 37 ea a2 2e 38 ee 11 97 b8
       -2.5800902e-05 1.2146051e-05 4.163656e-05 -7.203581e-05

bn3.weight f4 [32]
000000 41 b5 83 3f 49 d4 7e 3f 35 47 7e 3f 52 a7 7f 3f
       1.0289689 0.9954267 0.99327403 0.99864686
000010 58 22 7f 3f 18 f3 80 3f df a8 7f 3f 8d 33 81 3f
       0.9966178 1.0074186 0.9986705 1.0093857
000020 f0 2e 81 3f ec da 7f 3f 13 08 81 3f b1 0b 81 3f
       1.0092449 0.99943423 1.0080589 1.0081693
000030 97 6d 7f 3f 93 1e 80 3f d7 16 80 3f d3 18 7f 3f
       0.99776596 1.000933 1.000697 0.99647254
000040 a8 b7 7f 3f d1 8a 80 3f ee 88 81 3f c9 95 81 3f
       0.9988961 1.0042363 1.0119913 1.0123836
000050 8b c8 80 3f 55 19 80 3f 91 5e 7f 3f 75 2c 80 3f
       1.0061201 1.0007731 0.9975367 1.0013567
000060 d8 a9 81 3f 74 52 7f 3f 5c 9f 80 3f a3 60 80 3f
       1.0129957 0.9973519 1.0048633 1.0029491
000070 83 40 80 3f 9c 8e 7e 3f bb da 7f 3f 02 e7 7f 3f
       1.0019687 0.99436355 0.9994313 0.99961865

bn3.bias f4 [32]
000000 e7 6f 41 bc f1 65 0b bc e0 f3 fe bb 61 59 bd bb
       -0.011806465 -0.008508191 -0.007780537 -0.005778477
000010 72 a7 ac bb c8 c8 31 bc df e0 d6 bb 9d f6 bf 3a
       -0.0052689845 -0.010851093 -0.0065575684 0.001464564
000020 c2 97 7a 3a bc 0e b7 bb 3d b1 18 bb 56 21 0d 3b
       0.0009559357 -0.0055864733 -0.0023299002 0.0021534762
000030 89 37 18 bc 63 62 b5 bb 0b c7 d5 bb 93 9d 2d bc
       -0.009290584 -0.0055354103 -0.006523972 -0.010596651
000040 cb a7 73 bb ba 91 29 bb c1 de 31 bc 13 19 02 bc
       -0.003717887 -0.0025874213 -0.010856331 -0.0079405485
000050 90 1b 2f ba 79 85 a6 bc 2b aa 4d bc c6 50 5d bb
       -0.00066798273 -0.020327317 -0.012552778 -0.0033770069
000060 4e f5 94 bb b3 c0 66 bc 7c d7 b0 bc ee 63 3a bb
       -0.004545844 -0.014084029 -0.021587126 -0.002844091
000070 63 94 fe bb 5e 24 66 bc 67 da f9 bb d0 cb ca bb
       -0.007769154 -0.014046757 -0.0076249125 -0.006188847

bn3.running_mean f4 [32]
000000 b5 89 5b 3d 5d 16 2e be e7 d9 11 3d 52 7d 7f 3d
       0.053598125 -0.17000718 0.0356082 0.062375374
000010 bc a9 ba 3d 0c a1 5c 3d a8 1f 9b 3d e9 24 8c 3e
       0.091144055 0.053864524 0.07574397 0.2737191
000020 ce a5 11 bd ab 2a 8c 3d 68 24 82 bd db 4a 38 be
       -0.035558514 0.06844076 -0.063546 -0.17997305
000030 60 a4 ed 3c 50 1c 4f bd ff c6 48 3b fa 92 61 be
       0.029009044 -0.05056411 0.003063619 -0.22028723
000040 00 0a 15 bd 09 11 9f bd 8c 7c 2a 3e fc 4e 1b 3e
       -0.03638649 -0.07766921 0.16649073 0.15166849
000050 68 f5 99 bb c7 25 f7 3d 82 19 05 3e 8b 65 35 3e
       -0.004698444 0.12067752 0.12998012 0.17714517
000060 b7 f9 53 3e 67 6d 6d bd 2f 56 e8 3c 99 8e c5 bd
       0.20700727 -0.057965662 0.028361408 -0.09646339
000070 95 7a 25 bd 1c 9d 84 bd dd 7d 6e ba 11 04 24 be
       -0.040400106 -0.06475279 -0.00090977346 -0.16017176

bn3.running_var f4 [32]
000000 e3 1f 20 3c 97 bd af 3c b5 99 e8 3b 62 29 39 3c
       0.009773227 0.021452708 0.0070984014 0.01130137
000010 5a 1d 62 3c 79 26 30 3c 1b 3e 46 3c 6f 7b e3 3c
       0.013800943 0.01075136 0.012099768 0.027768819
000020 a3 c9 40 3c 7d 46 40 3c a9 f4 60 3c 93 cb 77 3c
       0.011766824 0.011735556 0.0137302065 0.0151242195
000030 96 10 f0 3b fd b5 8b 3c 45 a8 96 3c f7 fb 7f 3c
       0.007326196 0.017054552 0.018390784 0.015624038
000040 da 20 41 3c 74 fd 2a 3c cd 47 a4 3c 08 52 84 3c
       0.011787618 0.0104364045 0.020053769 0.016152397
000050 f7 c1 72 3c 30 a8 a5 3c ec e4 e0 3c 40 ce 76 3c
       0.014816753 0.0202218 0.027452908 0.015063822
000060 e9 53 b4 3c 71 e3 0c 3c 67 dd 89 3c 68 00 fd 3b
       0.022012668 0.008599148 0.016829206 0.0077209957
000070 d5 63 31 3c f6 c3 00 3c bb 88 4a 3c 05 3a bc 3c
       0.0108270245 0.007859221 0.012361701 0.022976885

fc.weight f4 [3, 7200]
000000 77 ae 47 3c 3f 62 32 3c 58 1b cb 3b 81 0a 39 bc
       0.012187592 0.0108876815 0.006198328 -0.011294008
000010 a6 39 68 bc 1c b9 39 3c 41 ad 3e 3c 01 be d4 3b
       -0.014173901 0.011335637 0.011637987 0.006492377
000020 d1 56 87 3c 12 51 9c 3c 03 d2 28 3c 1b 86 36 bc
       0.01652089 0.019081626 0.010303977 -0.011140372
000030 7e a4 1a bb 05 32 7b 3c bf 50 b5 3a 27 e1 dc 3c
       -0.002359658 0.01533175 0.0013833268 0.02696283
000040 69 7b 00 3c bd fe 02 bc be a5 9a bb d0 9c c4 3b
       0.007841923 -0.007995305 -0.004719465 0.006000139
000050 1d eb b3 3b 76 d4 07 bb e8 d5 d8 bb 9f 16 93 3c
       0.005490674 -0.0020726002 -0.0066172965 0.017955123
000060 b1 fb 7c 3c a0 ae b1 3b 76 1e 9f 3c 43 2a be bb
       0.015440867 0.0054224283 0.019423705 -0.005803378
000070 de 53 94 3b 1b 0a 6e 3c d1 26 4a 3c da 67 61 3c
       0.0045265993 0.0145287765 0.012338356 0.01375767
000080 52 81 fa bb 85 21 b5 3b 37 80 97 bc cd 06 c2 39
       -0.0076448107 0.0055276775 -0.018493755 0.0003700763
000090 56 a7 02 bb 7b f7 7d bc 1a d5 ce ba de b3 d1 bb
       -0.0019936166 -0.0155008985 -0.0015780062 -0.0063996157
0000a0 dc bd 21 3c c2 fc ad 3a 83 06 cc bc ac 12 56 3c
       0.009871926 0.001327418 -0.024905449 0.013065975
0000b0 a3 08 68 3c a6 6b 09 3c bb 56 6e 3c 74 0f 63 3b
       0.014162215 0.008387482 0.014547045 0.0034646662
0000c0 81 88 98 bc ee 0c 97 ba b8 7b 64 bb a7 eb 82 bc
       -0.018619778 -0.0011524239 -0.0034863781 -0.015981508
0000d0 bb 0e c7 b9 cc 61 0b 3c 6b 6d 48 3c 1b 61 30 3a
       -0.00037967213 0.008507203 0.0122331185 0.0006728337
0000e0 8b e9 b6 3b 0f f6 28 bc c2 11 89 3a 85 09 18 3c
       0.0055820397 -0.010312571 0.0010457563 0.009279613
0000f0 d5 bc a3 3c 5c 6b 1a ba 1d 91 0a bc f7 ca 82 bc
       0.019987503 -0.00058906316 -0.008457449 -0.015965922
000100 4a 39 27 3c 54 6d 62 3c 83 18 b2 bc 83 ab c6 3a
       0.01020653 0.013820011 -0.021740204 0.0015157316
000110 68 79 4e 3c 06 e8 7c 3b 45 7e 21 bc 69 66 01 bc
       0.012602188 0.0038590445 -0.009856765 -0.007897952
000120 5b ef 83 bc c7 79 f5 ba 56 97 13 3a 0c 3a 0a 3d
       -0.016105345 -0.0018728309 0.0005630156 0.033746764
000130 14 e5 2e bc 3b 47 04 bc 0c cd 7c bc 23 aa 52 bb
       -0.010674734 -0.008073623 -0.015429746 -0.0032144866
000140 3f 2d 92 3c b1 30 95 bc de ea 56 bc 80 49 42 3c
       0.01784384 -0.018211694 -0.01311752 0.011858344
000150 e2 c9 73 bb cf 30 bd bb 5c 20 2c bc ea bc 81 bc
       -0.003719919 -0.0057736407 -0.010505762 -0.015837152
000160 75 2a 72 bb a4 16 16 3c 93 9e 03 3d 65 7a 89 bb
       -0.0036951576 0.009160671 0.03213365 -0.004195499
000170 44 02 0e bc 1c 62 54 3b e6 17 35 bb fb 1a 6d 3b
       -0.008667532 0.003240711 -0.0027632653 0.0036179412
000180 1b 8f 8e bb be e3 36 bc 59 f1 85 bb 45 e3 e9 bb
       -0.0043505556 -0.011162696 -0.004087609 -0.0071376883
000190 14 f9 15 bc 15 37 b3 bc bb 17 aa bb fc 0a c5 ba
       -0.009153623 -0.021876851 -0.005190817 -0.0015033181
0001a0 13 41 66 bb fc 23 7c 3b 0a 44 a1 ba 13 ee 83 bc
       -0.0035134002 0.0038473597 -0.0012303602 -0.016104734
0001b0 75 03 ff 3a 70 e4 e1 3b 69 df d2 bb f5 ec b8 bc
       0.0019455986 0.006893687 -0.006435324 -0.022573927
0001c0 eb 13 2c bb 88 fe 5f ba 19 d2 88 bc 03 3b ae bb
       -0.002625699 -0.0008544703 -0.016701745 -0.0053170933
0001d0 8f 50 a4 bc 0e df 3f bc b7 07 f1 bb 62 8f 43 3a
       -0.020057945 -0.011710895 -0.007355656 0.00074600254
0001e0 1e 4a f4 3b 42 b4 e1 3b 0d 9c b5 bb 94 47 39 3c
       0.0074551245 0.0068879435 -0.0055422843 0.011308569
0001f0 9d 86 fc 3a f8 6b 6b 3c 08 01 90 bc 4e 88 e3 bb
       0.0019266192 0.0143690035 -0.017578617 -0.006943739
000200 20 19 80 bc 6e b1 81 bc 03 d1 31 3c e5 1a 8b 3b
       -0.01563698 -0.015831675 0.010853055 0.0042451494
000210 c6 c0 a6 bc d7 13 8c 3b ff cd 30 3c 9d b6 91 bb
       -0.020355593 0.004274826 0.010791301 -0.004446818
000220 6e a4 0e 3b d4 2e 4b bc 97 90 26 3b 2f 46 46 3c
       0.0021765488 -0.012401301 0.0025415772 0.012101694
000230 bb cc 7f bc c2 16 19 bd f5 f0 16 3b 92 23 e4 3a
       -0.015612776 -0.03737522 0.0023031805 0.001740562
000240 e9 19 d2 bb bd dd 14 bc e7 52 37 ba 8d 4c 20 bc
       -0.00641178 -0.00908607 -0.00069932494 -0.009783876
000250 13 40 c0 3b 10 b8 b0 3b d7 08 e1 3c 19 b1 9a 3b
       0.0058670132 0.0053930357 0.027470035 0.0047208187
000260 8c 59 8a 3b dc af ab bb 3d ee 8e bc ab a4 2f bc
       0.0042221006 -0.00523947 -0.017447585 -0.010720412
000270 a4 8c 2b bc 19 b1 2b 3b dc 08 cc 3b 14 fc c2 ba
       -0.010470543 0.0026198088 0.006226642 -0.001487615
000280 47 3f dc b9 a5 3e 3a bb 85 67 5e bb 55 4b 40 3c
       -0.00042008815 -0.0028418687 -0.0033936214 0.011736711
000290 26 36 96 ba 8c 9d e3 3c bf 5a ea 3b 78 85 02 bc
       -0.0011460229 0.027785085 0.007151931 -0.007966392
0002a0 92 b3 f4 ba df 86 63 bb ce e0 0c bc fd 60 8a bc
       -0.0018669239 -0.003471784 -0.0085985195 -0.01689195
0002b0 75 c3 0a 3c 6d aa 03 bb 2f b5 4b 3b e3 aa cb 3b
       0.008469452 -0.0020090595 0.0031083336 0.0062154396
0002c0 d6 7d 36 bc e9 9d b7 3a 81 c9 ea 3b 3d f5 3d bc
       -0.0111384 0.0014008853 0.0071651344 -0.011594114
0002d0 22 9b bf bb 8d 41 c6 3b 36 a7 4a bc 0a f3 1f bc
       -0.0058473507 0.0060502947 -0.012368968 -0.009762535
0002e0 ba 62 6a bc 7f 65 4c bb 49 a2 7f bc ed 0d 9b bc
       -0.014305765 -0.0031188426 -0.015602657 -0.018927539
0002f0 51 7f fe bb d7 c8 e2 3b f6 d0 7e bc bb 69 8d bc
       -0.007766642 0.0069209146 -0.01555275 -0.01726233
000300 17 b9 ae bb 9a 34 41 3c 6d 2d c9 3b c1 f6 59 bc
       -0.005332123 0.011792326 0.0061394484 -0.01330346
000310 ff 39 13 bc 67 c6 c4 bc f0 f8 cd bc 2d ea 79 bc
       -0.008985995 -0.024020387 -0.025143117 -0.015253586
000320 74 85 21 3c 7f 82 28 3c 57 e9 08 bc 38 73 3f 3c
       0.009858478 0.010285019 -0.008356414 0.011685185
000330 37 4b 5f 3c 7d 29 fd b9 95 05 89 bc e2 56 b2 3a
       0.013628772 -0.00048286832 -0.016726295 0.0013606215
000340 b5 97 25 bb be cd 8d 3b f1 42 04 3c 64 76 a5 3b
       -0.0025267426 0.004327505 0.008072601 0.0050495137
000350 5d a6 8a 3c e0 bd db bb 06 85 23 bc c6 b8 a0 bb
       0.016925031 -0.0067059845 -0.009980446 -0.004904839
000360 05 82 9f bb 9b 1e 43 3b 21 fc b6 ba 9a cc 4e bb
       -0.0048677945 0.002977288 -0.0013960638 -0.0031555058
000370 81 0c 38 3c ec c2 3d ba 6a b7 83 3c d7 4c 7f b9
       0.01123345 -0.00072388235 0.01607867 -0.0002434732
000380 ae 86 4b 3c df 2a c9 3b 42 36 13 3b 3a ae 9f 3c
       0.012422247 0.006139144 0.002246276 0.019492257
000390 e5 b2 5c 3b 09 de 21 ba 29 bd b7 bb 36 36 19 bc
       0.0033675965 -0.00061747484 -0.0056072664 -0.009351304
0003a0 c2 8b 39 bc 5e 23 ba bb fe c8 2a bc 33 18 e2 bb
       -0.011324825 -0.0056804856 -0.010423897 -0.0068998574
0003b0 e8 21 08 bc 99 7a 85 bc 84 c7 08 bb bc f2 3d bc
       -0.008308865 -0.01629381 -0.0020870874 -0.011593517
0003c0 e0 2a 1e bc 2a d3 7e 3b 34 b6 83 3c b7 10 d7 bb
       -0.009653777 0.0038883188 0.016078092 -0.006563272
0003d0 c9 ee 56 3c 72 d3 89 3b 08 a5 b9 bb 8d dc 9a bc
       0.013118454 0.0042061144 -0.005665425 -0.018903995
0003e0 86 bc f4 bb de 28 e8 3b cc a3 98 3b b8 e0 62 bc
       -0.007468763 0.00708495 0.004658198 -0.013847522
0003f0 fe 82 21 bc 7f 10 a2 bc 61 18 e6 3b 63 0d 1c 3c
       -0.009857891 -0.019783257 0.007021949 0.009524676

fc.bias f4 [3]
000000 d5 ca 10 ba 30 cf 0b 3c a8 99 ff 3b
       -0.00055233884 0.008533284 0.0078002997
