pretrained_models/best_EleComp_dataset_checkpoint.model (torch, 184688 bytes, 16 tensors)

conv1.weight f4 [12, 3, 3, 3]
000000 e2 65 ea 3c fa f7 94 bd ab 6f 26 3c 32 ea c2 3d
       0.028613035 -0.0727386 0.01015846 0.095173255
000010 bd b2 26 be 8b f5 b0 bd ba fd 2d 3e 80 0c 5f bd
       -0.1627912 -0.086405836 0.1699132 -0.05445528
000020 e3 4d 00 be 5b d7 0c 3e 03 98 1a be 9f 99 f9 bd
       -0.12529711 0.13754027 -0.1509705 -0.12187504
000030 ef 92 2b bd d4 01 17 bb 30 ce 17 3e 55 9c 10 3e
       -0.041888174 -0.002304186 0.14824748 0.14122136
000040 d2 b9 65 3d 2f e3 1e 3d 3f 69 22 3b a2 1e 2e 3e
       0.056085415 0.038790878 0.002478197 0.17003873
000050 15 98 18 3e aa a1 c2 bd 75 a7 18 3e d0 4b c0 bd
       0.14901765 -0.09503491 0.1490763 -0.0938946
000060 df 85 01 be f7 9f bd bd da a1 fc 3d c4 bb d9 bc
       -0.12648724 -0.092590265 0.12335558 -0.026578791
000070 e2 da 1a 3e ab a3 8d bb 97 a8 50 3e 1c 1b ca bd
       0.1512256 -0.0043224893 0.20376812 -0.09868452
000080 10 1e b2 bd ce 9f ed 3d 6a 56 2d 3d 56 25 7a bd
       -0.0869714 0.11602746 0.04231874 -0.061070763
000090 7b e4 03 bd 07 3b 38 3c b3 5b 30 be 02 3f 2a 3e
       -0.032200318 0.011244542 -0.1722248 0.16625598
0000a0 a9 c4 e4 3d fa 1b 8f 3d fa d3 48 be 85 ac fa 3d
       0.111703224 0.06987758 -0.19612113 0.12239937
0000b0 8b 38 3a 3e 82 3f 81 3d 51 09 c7 bd 8b bc 14 3e
       0.18185632 0.06310941 -0.09718574 0.14525048
0000c0 6e 01 48 be 78 42 16 3a df ea aa bd 8e 9e 9c bc
       -0.19531795 0.00057319505 -0.08345579 -0.019118574
0000d0 e0 df 12 3d df 0e 5d 3d cf b4 0d bc e9 7e 2b 3e
       0.035858035 0.05396926 -0.008649065 0.16747631
0000e0 5f c5 65 bd e8 c1 fc 3d 75 d0 39 3d 1b f1 56 3c
       -0.05609643 0.12341672 0.045364816 0.013119007
0000f0 30 68 3d 3e 76 2e 2f be d9 ee 30 3e f9 fa 64 3d
       0.18496776 -0.17107567 0.17278613 0.05590341
000100 7a 3f 39 3d b2 7e 71 bb 28 93 03 3e 64 08 2e be
       0.04522655 -0.0036849198 0.12849104 -0.16995388
000110 e7 74 1c be 7c 60 46 3e 14 a9 c1 3d 9a 58 10 be
       -0.1527897 0.19372743 0.09456077 -0.14096299
000120 87 67 38 3e 61 8f f0 bc f6 76 03 bd 47 2a 4e 3e
       0.18008243 -0.029365243 -0.032095872 0.20133315
000130 3a 2f 6a bd 70 1f 17 3e e0 d6 44 3e cd 23 1b 3d
       -0.057173945 0.14758086 0.19222593 0.03787594
000140 87 b7 2d 3e b4 59 11 be 50 48 0c 3e af b4 e2 3d
       0.16964541 -0.14194375 0.1369946 0.11069619
000150 3d a8 1d 3d 1f fe 27 be cd ff 97 3d 00 0e 22 3e
       0.038490523 -0.16405533 0.07421837 0.15825653
000160 d9 0c 95 bd 52 6d 7a bc 3c f8 42 be d2 24 93 bd
       -0.07277841 -0.015284853 -0.19040006 -0.07184757
000170 1e a0 34 bd e3 ac 22 3e a8 fa 07 3d ae 92 b9 bd
       -0.044098012 0.15886264 0.03319803 -0.0906118
000180 8f c7 13 bd cf 1c a5 3d 4e 11 52 3d 19 05 0f be
       -0.036078986 0.080621354 0.051286034 -0.13966788
000190 6a 84 ad bd 48 90 8b 3d 6b 24 bf 3d f4 3d ac 3d
       -0.084725216 0.06814629 0.09333118 0.08410254
0001a0 1b 89 b3 bd b7 2a 3b 3e 10 b1 01 bb 52 21 03 3e
       -0.08766385 0.18278013 -0.0019789375 0.1280568
0001b0 f4 ba 2b 3e 22 d5 0f be 36 90 39 bc 8b a5 3e be
       0.16770536 -0.14046147 -0.0113258865 -0.18617837
0001c0 5f 5a 34 be ad 2a 8f 3d 91 36 12 be 97 fd 12 3d
       -0.17612599 0.06990562 -0.14278628 0.035886373
0001d0 55 42 59 bc ad 85 15 bd 7e e9 8b bd a3 54 0b 3e
       -0.013260444 -0.036504436 -0.068316445 0.13606505
0001e0 69 9e 20 bd 6c 42 3e 3e 49 a3 7a 3d c4 5e e3 3d
       -0.03921357 0.18580025 0.061190877 0.111020595
0001f0 4b de c2 3d d1 66 24 3d da a4 2d be ca 84 bc 3d
       0.09515055 0.040137116 -0.16957417 0.09205015
000200 66 a0 3d 3c 25 d3 21 be 54 5e 9c 3d 8f f1 db 3b
       0.0115738865 -0.15803201 0.07635179 0.0067121456
000210 8a ce c2 3d 92 5c 2d 3e 54 dc 29 be 4b 03 ce 3d
       0.095120504 0.16929844 -0.16587955 0.10059222
000220 a5 53 ab bc 90 98 65 3c 1b 52 19 bc ba 8a 94 bd
       -0.020913908 0.0140134245 -0.009357954 -0.072530225
000230 4e bb 2f be 39 cd 1a 3e 7f 62 25 3e f5 3a a5 bd
       -0.17161295 0.15117349 0.16150855 -0.08067886
000240 b3 f2 af 3d f1 2b 5b 3d 6f d7 06 bd e3 38 37 3d
       0.08591213 0.053508703 -0.032920297 0.044731986
000250 ed 94 f8 3c 46 39 ee 3c 1e 87 17 3e ba 60 f4 bd
       0.03034445 0.029080044 0.14797637 -0.11932512
000260 99 e0 51 bd 0e a9 08 3e e1 50 e8 bd 19 5c 11 be
       -0.051239584 0.13345739 -0.113435514 -0.14195289
000270 a0 b2 0d be c9 8e 00 3c 75 e0 e8 3d aa f3 cc bd
       -0.13837671 0.007846543 0.11370937 -0.10007413
000280 e2 79 c4 3d 9b 0b 17 be a6 06 3e 3c 54 4b 36 be
       0.0959356 -0.14750521 0.011598265 -0.17802173
000290 12 35 2c 3e b2 a5 c3 bb 1c ba c0 3c 0a e6 41 3e
       0.1681712 -0.00597068 0.023526244 0.18935409
0002a0 37 b5 2c 3e bc 8b b5 bd e3 e3 51 bd 93 02 70 bd
       0.16866003 -0.08864543 -0.05124272 -0.058596205
0002b0 1b f1 1e be 28 69 11 be e4 a1 23 3d a4 07 3d 3e
       -0.15521662 -0.1420027 0.039949313 0.18459946
0002c0 71 8f 35 bd 7d e8 0d bd 14 b4 24 be e3 7f 2a be
       -0.04432625 -0.034645546 -0.1608432 -0.16650347
0002d0 44 c8 27 3e b7 dd ed 3d 2b 28 7f bd 35 61 09 be
       0.16384989 0.116145544 -0.062294167 -0.13415988
0002e0 46 08 ea bc fc 1d d9 bc 83 98 58 bc 27 33 a2 3d
       -0.028568398 -0.026503555 -0.013219955 0.07919913
0002f0 53 89 8c 3d 5a c4 c4 3d dc 05 a6 3b df 45 08 be
       0.0686213 0.096077636 0.0050666165 -0.13307904
000300 3c 43 00 bd 39 bc d0 bd 17 fa 7f 3d 72 38 0c 3d
       -0.03131412 -0.101921506 0.062494364 0.034233518
000310 a9 07 50 bd d0 a5 3a be 66 ed 38 bc 41 c3 24 3e
       -0.050788555 -0.18227315 -0.011287069 0.16090108
000320 82 3a a2 bc 79 13 b1 3d 01 1d e5 3d a4 33 35 be
       -0.01980329 0.08646292 0.11187173 -0.1769548
000330 03 f1 a7 bd 75 6e c9 bd 43 ef 26 3d 31 36 3e 3a
       -0.08200266 -0.09835521 0.04075552 0.0007256
000340 d5 79 af bc 6b 6a a1 3d a6 51 e2 bd 06 96 3f bd
       -0.021420399 0.07881626 -0.110507295 -0.046773933
000350 99 18 83 3d d2 d1 92 bd 3d 46 3d 3e 75 84 e3 bd
       0.06401176 -0.07168926 0.18483825 -0.111092485
000360 c5 2f d7 3d 94 40 31 3e e0 79 27 3e 51 5f c3 bd
       0.10507158 0.17309791 0.16355085 -0.095396645
000370 32 90 0f be cd 1a 4d 3e 7e e3 0b be e5 05 fc bd
       -0.1401985 0.20029755 -0.13661 -0.12305812
000380 16 99 84 bd 8e 33 43 be 50 3b 0a be 8d da 38 3e
       -0.06474511 -0.19062635 -0.13499188 0.1805212
000390 30 2d f6 bc 6d c3 3f bc 7f e6 78 3d b5 7e 9b bc
       -0.030050844 -0.011704308 0.060766693 -0.018981317
0003a0 48 bb e7 bd 94 7e 13 bc 97 29 4d 3d f8 a4 e4 bd
       -0.11315018 -0.009002347 0.05008849 -0.11164278
0003b0 c8 8e ef bc 4b 47 27 3e 1b 50 18 3e 56 4c a8 3c
       -0.029242888 0.1633579 0.14874308 0.020544212
0003c0 e9 58 3d 3e 5c 36 12 3e d7 09 df 3d a8 e6 4d 3e
       0.18490948 0.14278549 0.10890549 0.2010752
0003d0 99 c2 ac 3d 2b 15 e1 3c f5 76 24 be 19 82 d2 bd
       0.08435554 0.027475914 -0.16061004 -0.102787204
0003e0 97 1d 59 bd 93 eb 12 be a9 43 91 ba ff 76 19 bd
       -0.053006735 -0.14347677 -0.0011082786 -0.037467
0003f0 6d 55 40 bd f3 4b 40 bd fb 1f 40 3e 1a 8c 9d 3b
       -0.04695647 -0.04694743 0.187622 0.004807961

conv1.bias f4 [12]
000000 9a 1d 57 3c 45 23 26 39 fe f7 31 36 05 97 f8 3a
       0.013129616 0.00015844133 2.6519406e-06 0.0018965906
000010 fa 4a df 3b 98 f7 52 b8 48 9b 4b 3d 32 eb 02 b7
       0.006814358 -5.029849e-05 0.049708635 -7.8033645e-06
000020 5a 6b 79 bb 7e d3 be 36 eb 0e 99 3b 4d 1f 34 b7
       -0.0038058371 5.687062e-06 0.004670968 -1.0736124e-05

bn1.weight f4 [12]
000000 c5 ef 7f 3f df 12 80 3f d6 23 7b 3f 97 c4 80 3f
       0.99975234 1.0005759 0.98101556 1.0059994
000010 08 54 81 3f 42 e0 82 3f 7c a1 7f 3f 4c 7e 7b 3f
       1.0103769 1.0224688 0.9985578 0.9823959
000020 f1 42 7f 3f b9 54 80 3f 58 3c 80 3f da c6 80 3f
       0.9971152 1.0025855 1.0018415 1.0060685

bn1.bias f4 [12]
000000 99 1b 9e bb 08 8a 8f bc a2 03 87 bc 96 44 16 bc
       -0.0048250672 -0.017521873 -0.016481224 -0.009171626
000010 a7 be 4d bc e3 46 1f bb 97 c2 61 bc ee bf d1 bb
       -0.012557662 -0.0024303726 -0.013779304 -0.0064010536
000020 45 29 31 bc a7 08 0c bb 1a 58 cf bc 10 60 61 bc
       -0.010813062 -0.0021367462 -0.025310565 -0.013755813

bn1.running_mean f4 [12]
000000 11 e1 2b 3e 04 a4 56 3e d5 b8 5a 3f 2d 41 35 3e
       0.16785075 0.20961004 0.8543828 0.17700644
000010 53 7e 97 3d ce a4 99 bd 17 41 e4 bc 9c 8e 26 be
       0.07397141 -0.07502137 -0.027863069 -0.16265339
000020 af cd c4 3e f8 0c 69 bd 0e 29 26 bc 82 8d c9 bb
       0.38438174 -0.056897134 -0.010141624 -0.0061509022

bn1.running_var f4 [12]
000000 53 7b c8 3d 4d ba 89 3e 57 54 28 40 96 c0 5f 3e
       0.09789147 0.2689995 2.6301477 0.2185081
000010 3c eb e6 3d b3 8b 07 3e e4 0a 79 3d 55 3c 46 3e
       0.11275336 0.13236885 0.0608014 0.19358952
000020 63 8b f7 3e cd bd 83 3e 17 05 08 3e 56 a3 00 3e
       0.4834853 0.25730744 0.13283192 0.12562308

conv2.weight f4 [20, 12, 3, 3]
000000 50 5a da bd 79 87 d2 3c f4 ff 27 bb a7 e5 b2 3c
       -0.10661757 0.025699364 -0.0025634738 0.021838022
000010 83 c6 c6 bc bd df be 3d 3a ec cc 3c bf 7a 09 bc
       -0.02426458 0.093200184 0.025014985 -0.008391081
000020 cf e0 53 bd ea b2 ad bd 35 06 95 3d c8 5b 2b 3d
       -0.051728066 -0.08481391 0.072765745 0.041835576
000030 67 10 b3 bd 81 8f 22 bd 8e d9 87 3c 4c f7 81 3d
       -0.08743363 -0.039687637 0.01658323 0.06345996
000040 ee 48 8d bd 2a 74 85 3b 0e 4a f2 3c de 63 8b bd
       -0.06898676 0.0040726857 0.029576328 -0.068061575
000050 44 60 80 3d 80 ec a7 3d b1 12 6b bd 53 23 9d bd
       0.06268361 0.08199406 -0.057390872 -0.07672753
000060 67 4e 60 bd f9 f9 16 bd f4 18 cd bd 38 b0 3b 3d
       -0.05476227 -0.036859486 -0.10014525 0.045822352
000070 3a ce 84 3d df 3d 57 3d 31 69 36 3c 79 b7 02 3d
       0.06484647 0.05254924 0.011133478 0.031913254
000080 65 fa 81 3d 43 0c de bc 4b fe 0b 3d 83 05 fe 3b
       0.06346587 -0.027105456 0.03417806 0.007752122
000090 fb 43 c2 3c 84 3e 9d 3d 30 7f 1f 3d 74 4e e8 3c
       0.023714056 0.076779395 0.038939655 0.028357722
0000a0 13 c3 19 3c 82 36 23 3d 1d 02 3e 3d 3f 8a 22 bd
       0.009384888 0.039846905 0.046388734 -0.039682623
0000b0 e7 bc a7 bd b6 a8 93 bc 36 85 c0 bd 5d 94 42 3b
       -0.08190327 -0.018024784 -0.09400408 0.0029690482
0000c0 63 4c d4 bc 00 43 ab 3d b4 e9 07 3c b3 cd a6 bd
       -0.02591533 0.083623886 0.008295465 -0.08144703
0000d0 00 ac 71 3c 87 04 b3 bd a8 b1 78 bb db c9 4b bb
       0.014750481 -0.08741098 -0.0037947688 -0.0031095657
0000e0 54 e2 0c 3d 30 4d bc bd 20 a8 c9 3d 5b be 32 bd
       0.03439553 -0.0919441 0.098465204 -0.04363857
0000f0 99 73 8e bd a5 70 56 bd 78 f2 f0 bb 4c ce c8 3c
       -0.06955642 -0.05235352 -0.0073531233 0.024512433
000100 4b 16 d5 bc 05 4c 48 bb c3 a6 87 bd 05 77 29 3d
       -0.026011607 -0.003056289 -0.06623604 0.04137327
000110 86 5d bc 3d f3 f1 72 bd 1d 4c 52 3d ad 94 96 bd
       0.09197526 -0.059312772 0.05134212 -0.073525764
000120 84 2e 6d 3d a5 15 c6 3c 0b b3 81 3d 8d 74 d4 bb
       0.05790569 0.024180243 0.06332978 -0.0064836205
000130 2a 92 84 3c 93 85 9b 3d e3 e6 99 3d b8 41 cf bd
       0.016182978 0.07593837 0.07514741 -0.10119957
000140 d7 7d 98 bc 6c aa a0 3d fd be 08 3c f0 4c 94 3d
       -0.018614693 0.078450054 0.008346316 0.07241237
000150 e0 01 e6 bd 96 fe 01 bd cd a0 9b bd 44 0d db b8
       -0.112308264 -0.031736933 -0.0759903 -0.00010445205
000160 49 39 2c 3d dd a7 31 bd 53 48 9c bd 26 30 ae bc
       0.04204682 -0.043372978 -0.07630982 -0.021263193
000170 f3 95 b2 3d 97 9e 75 3d 77 a9 6f 3d 5a 85 12 3d
       0.08720007 0.059965696 0.058511224 0.035771705
000180 2e e3 a2 bd 16 cb 92 bd 89 d3 10 bc 5c 3e b7 3c
       -0.07953487 -0.07167642 -0.008839496 0.022368602
000190 3e d7 1c 3d 6c 8b b8 bd 98 77 4e 3d 66 de 5e 3d
       0.03829121 -0.090109676 0.050407022 0.054411314
0001a0 3c c3 0d 3c bc a0 0d 3d ba cb b2 bb a2 c4 b4 3d
       0.0086525045 0.034577116 -0.005456415 0.08826567
0001b0 ee ba 21 3d a5 7f a9 3d 70 82 a5 3d b5 be c7 bc
       0.03948491 0.082762994 0.080815196 -0.024382928
0001c0 03 1b 15 3d 30 a0 bb 3d 39 af 8b 3c ea 70 89 bd
       0.036402714 0.09161413 0.017051326 -0.0671099
0001d0 2a 4f 90 bc d5 16 cb 3c 5a bf f2 bc bf ec 28 bd
       -0.017615873 0.02479116 -0.02963226 -0.041241404
0001e0 5a 57 2d bd d1 b7 90 3d 1d 46 13 bc 29 6b 29 3d
       -0.042319633 0.0706631 -0.008988884 0.04136196
0001f0 7a 7c 84 bc c7 80 cf 3c f2 e6 79 3d 70 ad 99 3d
       -0.016172636 0.02532996 0.061011262 0.07503784
000200 15 85 29 bc 47 f2 4d 3d b8 fb 00 bc 8d 77 30 3d
       -0.010346671 0.05027988 -0.007872514 0.043082763
000210 63 5f 81 bd e5 59 48 3d 7b 01 2f bd de 21 3c bc
       -0.06317022 0.048913855 -0.04272602 -0.011482684
000220 5e 26 ae bd 36 20 85 bd 2f 75 e1 3b bd 0e 96 3d
       -0.08503412 -0.065002844 0.0068804245 0.0732703
000230 c4 97 9f bd 2c 8b a1 bd 70 7f 54 bc 59 61 db bc
       -0.07792619 -0.07887873 -0.012969837 -0.026779817
000240 60 f8 ba bd 7c 89 00 bd 1f fa a6 bc f3 27 e8 3c
       -0.09129405 -0.031381115 -0.020382939 0.028339362
000250 cb 3c d1 bd 85 f7 bc bd d2 72 bd 3c 21 ca 76 bd
       -0.102166735 -0.09226898 0.02312604 -0.06025136
000260 a3 a7 8a bd 32 1c 96 bc 00 ed e4 bb 77 f7 1b 3d
       -0.067702554 -0.018323991 -0.0069862604 0.038077798
000270 1c b0 9d bd 5e c4 b6 3d da 0f 16 bd 3c 74 8b bc
       -0.07699606 0.08924173 -0.03663621 -0.017023198
000280 e0 66 6b bd 7e c7 e2 bd bd 52 db 3d aa 1c 16 bc
       -0.057471156 -0.11073206 0.107091404 -0.0091621075
000290 28 75 d7 3c fa d5 84 3a d5 15 cb bc bf 40 9d bd
       0.026300982 0.0010134571 -0.024790684 -0.07678365
0002a0 58 f8 34 3d a1 5a 38 3d 57 1f 9f bd b6 66 45 bc
       0.04418215 0.045008305 -0.077696495 -0.012048414
0002b0 ff bd 2e 3d 43 04 4b bd d7 53 35 bd f5 69 a7 bd
       0.042661663 -0.04956461 -0.04426941 -0.081745066
0002c0 ae f8 3e bd 32 fe 64 3c d8 c9 79 3d cd b8 2b 3b
       -0.04662388 0.0139766205 0.06098351 0.002620268
0002d0 0d 31 81 3d e1 6f 5c bd 20 20 96 3d f2 07 3e bd
       0.06308184 -0.053817634 0.07330346 -0.046394296
0002e0 da 7a aa ba 80 ef cc 3c 3e 3a 80 bd 0f 41 b9 3d
       -0.0013006583 0.025016546 -0.06261109 0.09045612
0002f0 b2 bf a8 3d 62 81 8b bd 4a 49 be 3d 91 2e b8 3d
       0.08239688 -0.06811787 0.092913225 0.08993257
000300 5d 39 77 3c 03 b6 2f 3d 49 60 a0 bc cd 88 af bc
       0.01508936 0.04289819 -0.019577162 -0.021427536
000310 42 94 62 bc 42 a1 d7 3d 47 26 c5 3d c5 24 89 bd
       -0.013829293 0.10528804 0.096264414 -0.06696466
000320 76 f4 cc 3d 9f 4f ee 3c de 44 bf bc 22 49 ae 3d
       0.10007565 0.0290907 -0.023348268 0.08510043
000330 0d 38 13 3d 22 3e 78 bd d8 41 2f bd 28 09 60 bd
       0.035942126 -0.06060613 -0.042787403 -0.054696232
000340 71 3a c0 bb 51 4d 7a bd b3 81 53 3d 52 f9 f5 bc
       -0.0058663418 -0.06110889 0.051637363 -0.030026112
000350 e7 20 51 3d 4a bb 74 bd 95 ab 9d 3d b6 da ce bd
       0.05105677 -0.059748925 0.07698742 -0.101003096
000360 2f 7f 2d 3c 94 a1 3e bd e1 5b d1 bc 10 5c 13 bd
       0.010589405 -0.04654081 -0.025556507 -0.03597647
000370 31 c9 4b 3d c7 45 bc 3d 45 f4 32 3c 24 ac 12 bd
       0.049752418 0.091929965 0.010922496 -0.035808697
000380 9b 7e 34 3d a3 bc b5 3c 75 c6 6c 3d 1a ea 31 3d
       0.044066053 0.022184676 0.05780645 0.043436147
000390 0e db b0 3c 4c 2a a7 3c ea 7c 41 bd df 23 4c 3d
       0.021588828 0.02040591 -0.047238268 0.049838897
0003a0 74 67 b2 bd d1 26 98 bc 34 37 b8 3d d9 d4 ea bc
       -0.08711138 -0.018573197 0.08994904 -0.028665947
0003b0 65 a7 8c bd c8 e2 77 bd 8c 56 3c 3d 9b 7d 85 bd
       -0.068678655 -0.06051901 0.045980975 -0.06518098
0003c0 ea bf 87 3d 99 c9 9d bd f1 8c 41 bd cb e3 8b 3d
       0.066284016 -0.07704467 -0.047253553 0.068305574
0003d0 60 dd 89 bd 7e 23 30 3d 9b 6b 1b bc 81 8b 82 3d
       -0.06731677 0.043002598 -0.009486104 0.063742645
0003e0 0b 87 91 bd 05 e0 41 bc 0e bd 51 bd 0d c9 71 3d
       -0.071058355 -0.011833196 -0.051205687 0.059029628
0003f0 ba 5d a5 3d 06 1a 27 bc 81 30 98 bc da 6c a0 bd
       0.080745175 -0.010199076 -0.018577816 -0.07833262

conv2.bias f4 [20]
000000 5f f7 08 bd 47 9f 24 3c 80 6c a1 3b 71 00 4f bc
       -0.033439036 0.01004774 0.0049262643 -0.012634383
000010 38 b3 94 3d 99 ff a6 3d 3c bf b1 3c 87 5c a6 bc
       0.07260746 0.0815422 0.021697633 -0.020307792
000020 9b ea 8c 3c ab 77 8e 3d 14 3c 1a 3d 06 13 a6 bc
       0.017201712 0.069564186 0.03765495 -0.020272743
000030 29 dd ac 3b c0 6c 72 3d 25 d1 d1 bc 63 12 ee 3c
       0.005275388 0.059185743 -0.025612423 0.029061502
000040 b4 d0 c1 3c 81 a5 09 3d 5c 95 af 3d 8a f9 aa bd
       0.023659088 0.033605102 0.0857341 -0.08348377

conv3.weight f4 [32, 20, 3, 3]
000000 80 23 00 3c ed 4f 1a 3d ac ba 45 3c be 3e 83 bc
       0.007820964 0.03767388 0.012068432 -0.016021129
000010 4c 57 e5 bc 8d c0 90 bc 19 e9 8a 3c 54 a9 98 3c
       -0.027995728 -0.01766994 0.016956853 0.01863543
000020 48 aa 68 3d 9b 0a 8d 3b 77 a0 aa ba 04 66 8a 3c
       0.056803018 0.004304243 -0.0013017793 0.016894348
000030 6b b6 68 3d e3 1e 6a 3c 1a a7 70 bd 90 58 bd bd
       0.056814592 0.0142895905 -0.05875311 -0.092454076
000040 d1 97 04 bc 92 24 19 bd 86 e5 22 3a 8b 07 39 bc
       -0.0080928365 -0.03738839 0.0006214011 -0.011293302
000050 14 9f ab bd 50 89 4f bd 0a b0 d8 3c c0 83 8d 3c
       -0.08379951 -0.05066806 0.02645113 0.017274737
000060 93 ad 52 bc 94 cc 6f bd cc fa 0a bb 76 9e d0 bb
       -0.012858766 -0.05854471 -0.0021206615 -0.0063665463
000070 3a 7d cd 3c 81 88 f0 3c f5 da b8 3c 35 c6 0f bd
       0.025084127 0.029361965 0.022565344 -0.035101134
000080 d8 d3 65 3d cd cc 4a bd 4c 8f ef bc 1a a1 cb 38
       0.056110233 -0.04951172 -0.029243134 9.709802e-05
000090 f5 ea cb 3d d4 d9 0a bd c0 46 ff bc 20 77 7a bb
       0.09956924 -0.033899143 -0.031161666 -0.0038217977
0000a0 cb 4a e2 bb 0d b2 0f bd 61 3e 1f bc 2b 66 0f 3c
       -0.0069058887 -0.03508191 -0.009719462 0.008752386
0000b0 8c c7 af 3c 9d 85 94 3b 22 66 dc bd 03 c4 89 3d
       0.021457456 0.0045325295 -0.10761668 0.067268394
0000c0 89 ca ac 3c fe 6e 2f bc 89 fe 1f 3d 5e 11 97 3c
       0.02109267 -0.010707615 0.039061103 0.018440899
0000d0 23 48 83 bc b2 91 02 bd 60 3e 8a bd dd 63 c9 3c
       -0.016025608 -0.031877227 -0.06750178 0.024583751
0000e0 d4 80 af 3b fe cf 5a bd 0e 27 61 bd 09 15 11 3c
       0.0053559337 -0.053421013 -0.054968886 0.008855113
0000f0 9b e3 88 bc c6 1e b8 bc 06 6d be 3c 01 36 0b 3d
       -0.016710093 -0.022475611 0.023245346 0.03398705
000100 ae 4d bb bd 5a cf ab bd 6e a9 25 bd 8d ba 9b bd
       -0.091456756 -0.083891585 -0.040444784 -0.07603941
000110 7e dc a1 3d e0 a7 91 3d 90 ce 49 bc 3b 60 3b 3d
       0.07903384 0.07112098 -0.012317315 0.04574607
000120 0f 9c 3b 3d be e0 8c 3c 7c 4a 82 bd 77 bd 59 bd
       0.045803126 0.01719701 -0.06361863 -0.053159203
000130 98 a1 26 3d 38 22 51 bd c9 56 d5 3c fe b5 0d 3d
       0.04068145 -0.051058024 0.026042359 0.03459739
000140 c2 da 15 3d c0 29 19 bd 5c c3 a2 3d d3 02 85 3c
       0.036585577 -0.03739333 0.07947418 0.016236698
000150 2c 3e 0a 3d e5 65 7f bd c9 dd ae ba e9 3e dd bc
       0.033750698 -0.062353034 -0.0013341244 -0.027007537
000160 32 51 79 bd e3 3b da 3c 64 a1 12 bb fa 1c 03 3d
       -0.06086845 0.026639884 -0.0022374028 0.032010056
000170 c9 25 1b bd 76 20 90 3d ca ed 57 3d 60 e6 a3 bc
       -0.03787783 0.070374414 0.052717008 -0.020007312
000180 65 df 3b bc 8f 0b 7d 3d e7 c1 70 bc a3 de 93 bd
       -0.011466836 0.0617786 -0.014694667 -0.07220199
000190 0f b1 6b 3d 75 7e ed 3c a4 d9 9c bd 32 93 67 3d
       0.057541903 0.028990963 -0.07658699 0.05653686
0001a0 0d 5e 94 bd 9a 05 2b 3d 72 ee 2f 3c df 7b 41 3d
       -0.07244501 0.04175339 0.010738002 0.047237273
0001b0 7d 5b 29 bd 31 f3 b2 3a 83 b3 5f bb 20 e0 b7 3d
       -0.041347016 0.0013652799 -0.0034134097 0.08978295
0001c0 d8 9e 0c bc cd 0e 94 bb e2 2d 25 3b bc a2 76 ba
       -0.008582793 -0.004518366 0.002520435 -0.00094084046
0001d0 da 07 1a 3d 61 69 52 bd af 87 a1 3d 7a 78 c5 3d
       0.037605144 -0.05137003 0.07887208 0.0964212
0001e0 f1 92 3f 3d 2a a2 fa 3d 1c 05 63 3d 7c 85 9e 3c
       0.046770994 0.122379616 0.055424795 0.01935076
0001f0 fe f3 9c 3d b6 e1 f1 bb 44 53 51 3d cf af 84 bd
       0.07663725 -0.007381643 0.0511048 -0.06478845
000200 39 5b 12 bc 8e ea 02 3d 01 c2 7f bd a7 7e d7 3a
       -0.008932882 0.03196197 -0.062440876 0.0016440944
000210 f5 66 a9 bd f8 61 45 3d ed 4f 62 3d cd 22 56 3d
       -0.082715906 0.048189133 0.055252004 0.052279282
000220 d0 b2 81 bd 92 3f 38 3d 69 6c 24 3d e6 b7 93 3d
       -0.06332934 0.0449825 0.04014245 0.0721281
000230 6d 74 2b 3d bf 18 c0 bc 13 cf 19 3d 48 56 6a bd
       0.04185908 -0.0234493 0.037550997 -0.05721119
000240 87 3e 40 bd 7e fb 86 3d bb ee 91 bc a0 a4 cc bc
       -0.04693463 0.06590937 -0.01781403 -0.024980843
000250 11 b4 13 bd 26 2f 97 bc b9 f0 95 bc 2f 76 16 bd
       -0.036060397 -0.0184551 -0.018303262 -0.036733802
000260 89 f7 87 3d 07 94 58 3d 65 fa 12 3d 88 9b 3d 3d
       0.066390105 0.052875545 0.035883326 0.046290904
000270 be d6 d5 3c d6 52 50 3c d2 bd 4d bd 19 f2 3a 3d
       0.026103374 0.012715062 -0.050229855 0.04564104
000280 79 a7 bd bd ae 65 33 3b b3 73 1c 3d c3 74 aa 3b
       -0.092604585 0.0027373838 0.038196277 0.0052019074
000290 ae 43 ac bd 82 87 72 bd 8b da 01 3d 9a f4 8b 3d
       -0.084113464 -0.05921126 0.03170256 0.068337634
0002a0 e9 51 a0 3d 33 22 29 bc f5 27 93 3d 05 ce cf 3c
       0.07828123 -0.010323095 0.071853556 0.025366792
0002b0 66 3c c0 bd ef 07 d5 3c 1d 26 3f bd 77 af 53 bd
       -0.0938652 0.02600476 -0.046667207 -0.05168101
0002c0 c6 5f 40 3d 39 5b 10 bd 9c a6 4c 3d 82 78 ee 3c
       0.046966337 -0.035243247 0.04996358 0.029110197
0002d0 94 c4 90 3d 1e 97 05 3d 3f cb c5 3a 5e d1 88 3d
       0.07068744 0.03261482 0.0015090479 0.066805586
0002e0 9e 2b 3e 3c ba 4e ea bc 6d 11 9d 3d b6 2c 80 3d
       0.011607079 -0.028601993 0.07669339 0.06258528
0002f0 c3 ab 91 3d 91 b8 fe bc ab cd 41 bc 18 e1 09 3c
       0.07112839 -0.031093867 -0.01182882 0.008415483
000300 c4 44 ea bc d0 4a 9c bd ed b8 25 bc 32 70 37 3d
       -0.028597243 -0.07631457 -0.0101148905 0.044784732
000310 28 db 8c bc 80 6a b1 3d 77 12 7b 3d 88 19 25 3d
       -0.017194346 0.086628914 0.061296906 0.04030755
000320 4b f6 9a 3b 91 23 ca bc fa e9 48 bd af 07 6c 3d
       0.0047290674 -0.024675163 -0.049051262 0.057624515
000330 0b 29 58 bd 24 64 de bc 0e 6c 31 3d 36 e4 84 3d
       -0.052773517 -0.02714736 0.04331594 0.0648884
000340 a8 86 45 3c e3 6d d5 bb 00 b5 5f 3d 75 2d 78 bd
       0.01205603 -0.0065133437 0.054615974 -0.060590226
000350 50 58 c0 39 62 d3 bf bc d1 ef 84 3b 1e 2d 04 3d
       0.00036686892 -0.023416225 0.0040569087 0.03226959
000360 3e 66 16 bd 00 e9 72 3d b8 5f aa 3c a0 d9 8c 3d
       -0.0367186 0.059304237 0.020797595 0.06877446
000370 ac e7 22 3d 4d 9b 90 3d 66 34 7b 3b b4 7d 9a bd
       0.03977172 0.07060871 0.0038330792 -0.07543507
000380 f2 be 44 3d da 3a 1f bd 71 48 22 bd 50 76 0c bc
       0.048033662 -0.038874485 -0.039619867 -0.00857313
000390 f6 6b 35 3d 05 cf 07 3d 30 81 97 bd 2c cf e5 3c
       0.044292413 0.033156414 -0.073976874 0.028052889
0003a0 ce 3d 39 3d b4 ca 6a bd a1 25 97 bb bf 24 6d bd
       0.045224957 -0.05732222 -0.00461264 -0.057896372
0003b0 57 23 7f bd b1 65 81 bd da 78 6d 3d cd 19 06 bd
       -0.062289562 -0.06318224 0.05797658 -0.03273945
0003c0 c1 ac 6b bd f7 ba 82 bb 50 69 61 3c b8 49 b2 3c
       -0.057537798 -0.003989573 0.013758019 0.021763667
0003d0 8f c4 54 bd d0 dd 03 3d a3 28 8b 3d 15 25 9d bd
       -0.051945265 0.03219396 0.0679486 -0.076730885
0003e0 36 3c 70 3c ac 2d 38 3d 45 40 74 bd 0f d5 14 bd
       0.014662793 0.04496543 -0.059631605 -0.036336
0003f0 54 34 9d bd 34 33 e5 3c 7a 94 3b bd 65 7e 24 3d
       -0.076759964 0.027978517 -0.045795895 0.0401596

conv3.bias f4 [32]
000000 81 1a 2a 38 45 ef 3f 37 5a 42 c2 b7 c8 f6 3c b8
       4.0555842e-05 1.1440196e-05 -2.31575e-05 -4.5052526e-05
000010 77 e4 8b b8 3c f5 1f b8 22 6b f2 36 83 9e 63 b8
       -6.6705914e-05 -3.8136946e-05 7.224634e-06 -5.4268643e-05
000020 f4 d2 64 b7 9c da 22 b8 f2 e3 53 b8 b4 07 72 b8
       -1.3638975e-05 -3.8827406e-05 -5.051861e-05 -5.770447e-05
000030 dc 5e 7d b8 a0 19 37 b6 93 18 d7 b6 a1 59 8b 38
       -6.0408245e-05 -2.728404e-06 -6.41036e-06 6.644731e-05
000040 9f 56 39 b7 8e 2d c2 37 60 8d b5 37 03 22 e6 b7
       -1.1047027e-05 2.3147815e-05 2.1642714e-05 -2.7433975e-05
000050 32 85 ec b7 4c 7c 96 b8 25 47 97 38 e7 c3 6b b7
       -2.8195416e-05 -7.1757095e-05 7.213493e-05 -1.4052704e-05
000060 54 13 1e b8 5f 2c b2 b7 53 a7 4a 37 76 cf c7 37
       -3.7688136e-05 -2.1239915e-05 1.2079096e-05 2.3819255e-05
000070 90 08 aa 37 69 13 83 37 92 a6 4b b8 3a 4a 21 b8
       2.0269566e-05 1.5625455e-05 -4.8554102e-05 -3.845452e-05

bn3.weight f4 [32]
000000 a8 55 85 3f 31 3b 80 3f 52 e6 7d 3f 99 46 82 3f
       1.0416765 1.0018064 0.99179566 1.0177795
000010 6b d0 85 3f a3 13 81 3f 54 b0 80 3f a4 5f 80 3f
       1.0454229 1.0084118 1.0053811 1.0029187
000020 96 17 82 3f 71 88 83 3f 82 55 82 3f ab 79 7d 3f
       1.0163448 1.0276014 1.0182345 0.99013776
000030 cf 7f 82 3f a2 d7 7e 3f 39 1c 82 3f c4 0f 83 3f
       1.0195254 0.9954778 1.0164863 1.0239186
000040 ee 0d 82 3f a1 fe 83 3f 23 a6 82 3f 28 dd 81 3f
       1.0160501 1.0312082 1.0206951 1.0145617
000050 05 0e 7c 3f 4d 24 80 3f 6b ed 7f 3f dc 70 7d 3f
       0.9845889 1.0011078 0.99971646 0.99000335
000060 f6 09 80 3f de 7f 80 3f 7f c9 7f 3f 99 49 80 3f
       1.000304 1.0039022 0.99916834 1.002246
000070 cb 3a 81 3f 31 9d 7e 3f ed 94 81 3f 14 29 82 3f
       1.0096067 0.99458605 1.0123574 1.0168786

bn3.bias f4 [32]
000000 fd 79 d4 bc ac cf a9 bc 21 5a f8 bc 5a fa 57 bc
       -0.025937075 -0.020728908 -0.030316414 -0.013182247
000010 cb 78 c4 bb bb f6 a0 bc 3c d9 c3 bc 53 5f cd bc
       -0.005995845 -0.0196489 -0.023907296 -0.025069868
000020 61 11 4f bc 96 f2 84 bc 37 fa 81 bc 91 ff f1 bc
       -0.012638421 -0.016228955 -0.015866382 -0.029540809
000030 44 9d a2 bc 96 d0 c5 bc 78 36 62 bc 8f f1 9b bc
       -0.01985038 -0.024147313 -0.013806932 -0.019036083
000040 5f 41 8f bc 5c 3d a1 bb c1 30 0f bd 6f f2 87 bc
       -0.017487226 -0.0049206447 -0.034958605 -0.016595094
000050 e9 b5 02 bd 6e 6c a3 bc 7b da dc bc 04 9f d4 bc
       -0.031911764 -0.019949164 -0.026959648 -0.02595473
000060 19 0c fc bc ff 4d aa bc 65 e7 d0 bc 9b 79 aa bc
       -0.030767487 -0.020789145 -0.025500963 -0.02080994
000070 97 ae b8 bc 99 6b d2 bc 75 94 e6 bc c0 1a db bc
       -0.022544188 -0.025686072 -0.028146962 -0.026746154

bn3.running_mean f4 [32]
000000 37 51 03 3d 3e 14 92 3d 20 1a 58 3e eb dd 3e 3c
       0.032059874 0.07132767 0.21103716 0.011649589
000010 79 48 66 bb cf 34 0d be 23 cb c4 3b bf 94 87 bd
       -0.0035138412 -0.13789676 0.006005661 -0.06620168
000020 d5 86 54 bc 8c 56 30 bd 7c fd 67 bc 02 c1 58 3d
       -0.0129716 -0.043051288 -0.0141595565 0.05291844
000030 c4 93 c3 bc a3 6f 56 3d c1 05 76 39 32 b5 8d 3c
       -0.023874171 0.05235256 0.00023462532 0.017298315
000040 fc fa 34 3d 91 12 5e bb 1c b0 aa 3d 01 ff 9a 3d
       0.04418467 -0.0033885578 0.083343714 0.075681694
000050 19 a2 36 bb d0 81 99 bc 9d 9a 00 3d 83 e9 e5 3d
       -0.0027867614 -0.018738657 0.03139745 0.112261795
000060 20 00 87 3c 3a 41 c4 3c 6b 4d 64 3d b7 3d 26 3d
       0.016479552 0.023956884 0.055737894 0.0405862
000070 e4 a2 50 3d d3 2e 79 bc db 48 8c bc 56 f3 f0 bd
       0.050936595 -0.015208918 -0.017124584 -0.11765163

bn3.running_var f4 [32]
000000 b0 9e 32 3c cc df 46 3c e3 45 99 3c 52 29 43 3c
       0.010902092 0.012138318 0.018710082 0.011911707
000010 fc 22 f6 3b a6 bb 76 3c 5a b9 0d 3c e0 eb 8a 3c
       0.0075114947 0.015059387 0.008650148 0.016958177
000020 76 14 1f 3c 59 73 2a 3c 52 4d 22 3c a4 bc 27 3c
       0.009709468 0.010403478 0.00990613 0.0102378465
000030 a8 3f 0e 3c df fa 62 3c 3e d5 22 3c f3 97 0e 3c
       0.008682169 0.013853758 0.009938536 0.00870322
000040 31 0a 15 3c 5e 6f 12 3c 02 8b 4c 3c 42 23 45 3c
       0.009096668 0.008937685 0.012484314 0.012032332
000050 21 0a 5f 3c 0d 1a 3f 3c 4e c7 16 3c dd 83 4d 3c
       0.013613255 0.011663926 0.009202791 0.012543646
000060 1e 7f 0f 3c 89 8f 46 3c b1 08 51 3c f9 a0 56 3c
       0.008758334 0.012119182 0.01275842 0.013099902
000070 88 14 5a 3c 2c 38 3d 3c ff c5 1b 3c bb e9 2d 3c
       0.013310559 0.011549037 0.009507655 0.010614808

fc.weight f4 [5, 7200]
000000 18 80 dd 3b 7a fa 97 39 e6 f0 1f 3c 0b 2d 1e bc
       0.0067596547 0.00028987584 0.0097620245 -0.009654294
000010 94 4e d7 39 41 d7 9b 3c 78 12 2b 3c de 8e a7 3b
       0.0004106654 0.01902354 0.010441415 0.0051134666
000020 d0 4f 06 bc 49 3e 60 3b b0 e5 d9 bb 31 11 31 3a
       -0.00819774 0.0034216812 -0.0066496953 0.0006754576
000030 d6 9f 87 3b 4d c3 e7 3c ab 7a 62 3c dc 78 57 3b
       0.004138927 0.028291369 0.013823192 0.0032878434
000040 dc 89 88 3b 4c 05 3d bb 10 09 02 bd de 85 2f bc
       0.0041668247 -0.0028842269 -0.031746924 -0.010713069
000050 b8 95 0b bc 9f 86 cc bc d5 57 08 bb 29 cb 35 3b
       -0.008519582 -0.024966536 -0.0020804305 0.00277395
000060 63 16 4f bc 99 44 82 bb a1 96 91 3b 2e a5 7e 3c
       -0.012639615 -0.0039754626 0.004443005 0.015542312
000070 ca b5 c3 3c a5 42 a4 ba 51 a6 d0 bb f9 07 00 bc
       0.023890395 -0.0012532069 -0.0063674827 -0.007814401
000080 be c3 1f 3b a0 34 5b bc 3f 9c 83 ba a7 78 c7 3c
       0.0024378146 -0.013379246 -0.0010041072 0.024349524
000090 28 d4 02 3b d9 01 c6 bb bc 67 00 3c 64 0c a0 bb
       0.001996288 -0.0060427007 0.007837232 -0.0048842896
0000a0 09 bd 47 bb bd f5 09 bc e3 a6 28 3c b9 72 da 3c
       -0.0030477664 -0.008420405 0.010293695 0.026666032
0000b0 9b 72 24 39 e6 3f 03 3c af f0 bf bb 33 8d a1 bc
       0.00015682953 0.00801084 -0.005857549 -0.01972065
0000c0 ed 2a 7a bc b2 18 27 3b 91 84 7d 3c 20 f6 b2 ba
       -0.015269023 0.0025496897 0.015473501 -0.0013653673
0000d0 b9 3b f4 bb 3c 34 7d 3b db 4e eb 3b 59 62 c7 3a
       -0.0074534086 0.003863587 0.007181031 0.0015211805
0000e0 11 99 ab bc 4c f1 2e 3c d6 45 d2 3b 33 cf 06 3a
       -0.020947011 0.010677647 0.0064170165 0.00051425694
0000f0 76 30 8f bc 39 34 19 bc ff 08 d3 3a d8 65 aa 3b
       -0.017479163 -0.00935083 0.0016100704 0.005200129
000100 a9 50 37 bc 55 ac 70 3a 7c 80 d5 3b b1 79 87 3c
       -0.0111886645 0.0009180953 0.0065155607 0.01653752
000110 5a dc e3 3b 91 39 32 bb 10 14 49 bc c4 a3 08 bb
       0.006953758 -0.0027194957 -0.01227285 -0.0020849565
000120 47 0d d6 3b f1 df b7 bb 34 13 a7 3b a6 46 0f bc
       0.0065323445 -0.0056114127 0.0050987247 -0.008744871
000130 f8 a3 4d 3c 94 20 22 bc 98 b1 2b bb 44 aa 2e bc
       0.0125513 -0.009895463 -0.0026198383 -0.010660712
000140 53 64 f6 3b 3b 32 86 3b 2a f8 2b 3c 89 e4 0c 3c
       0.007519284 0.0040953434 0.010496179 0.008599409
000150 d1 ea 56 3a 2c d8 3d bb 14 6a 8a bb df e1 ba 3a
       0.00081984425 -0.002896796 -0.0042240713 0.0014257989
000160 94 02 f9 bb c2 14 f0 ba e9 e5 9c bb 49 59 c9 3b
       -0.0075991843 -0.0018316733 -0.0047881496 0.006144677
000170 3b eb 5c bc 1e 41 37 3c 3c 8b 56 bb bb 13 a8 3b
       -0.013483818 0.011184959 -0.0032736799 0.005129305
000180 b6 16 7d 3b f2 50 24 3c aa 21 ae 3c c0 13 84 3c
       0.0038618273 0.0100290645 0.021256287 0.016122699
000190 fd b9 41 3b d4 b8 80 3a 4f 8a d3 ba 53 4e 29 bc
       0.002956032 0.0009820708 -0.0016139242 -0.010333615
0001a0 df a8 b5 39 1a 32 fc 3b f0 99 86 bc 12 75 08 bc
       0.0003464883 0.0076964023 -0.016430825 -0.008328693
0001b0 43 7d cb bb 6b 69 83 3c fa 04 36 3c aa 9d 91 bc
       -0.0062100007 0.016041478 0.011109585 -0.017775375
0001c0 13 da 66 bc 03 2b e2 bb 9f 23 a2 bc ba f0 63 bc
       -0.014090079 -0.0069021 -0.019792376 -0.013912374
0001d0 25 65 10 3d 9e 26 6b 3c f7 cd ff 3b 29 0e 6e 3a
       0.03525271 0.014352469 0.0078065353 0.00090810895
0001e0 fa 6d f5 3c 5a c0 aa bc 32 51 92 3b a5 62 ac bc
       0.029959667 -0.020843673 0.0044652456 -0.021043131
0001f0 db c2 6f ba ad 02 6c 3c 31 6b 6f bb 91 85 9f bc
       -0.0009146162 0.014404935 -0.0036532397 -0.01947287
000200 a9 ed 25 bc 65 61 5f bc 11 7a 0e bc cb 52 61 3b
       -0.010127463 -0.0136340605 -0.008696095 0.0034381624
000210 4e 57 a0 bc 58 05 25 bc 27 6b 13 bc 21 80 a2 3c
       -0.01957288 -0.010072075 -0.008997715 0.019836487
000220 18 19 78 bc 12 7d 96 3b 0e f8 60 3c f5 ce ab 3c
       -0.015142702 0.0045925463 0.013731016 0.020972708
000230 fe c4 41 3c 95 f1 4a bb 1e de 12 bc ea 8a 74 bb
       0.011826752 -0.0030966748 -0.00896409 -0.0037314245
000240 64 45 5f bc ee 2d 59 3a b9 f7 bd 3c d6 79 1a 3c
       -0.013627384 0.0008284737 0.023189412 0.009428462
000250 a2 a6 b0 bc 17 c0 a6 ba 57 d1 b2 39 63 00 ca bc
       -0.021563832 -0.0012722042 0.00034106776 -0.024658388
000260 eb 80 13 3c 76 3f 88 bc b8 c2 d0 bb f0 53 b2 bc
       0.009002904 -0.016631823 -0.0063708685 -0.02176854
000270 4f 66 94 3c 25 c6 a9 3b 2b 38 1f bc 0f e3 2c bc
       0.01811519 0.0051810914 -0.009717981 -0.010552182
000280 2f 83 ca 3b 7d b3 67 bb 6b 2e cd 3b 34 ca 05 bc
       0.006180189 -0.0035354786 0.006261637 -0.008165885
000290 32 a9 99 b9 f5 65 33 3c 88 48 42 3b 11 7d 6c 3c
       -0.00029308494 0.010949601 0.0029645283 0.014434115
0002a0 19 1a 20 3c e6 1a 2c 3c 64 c6 3c bb 20 9d fe bc
       0.009771847 0.01050446 -0.0028804773 -0.031080782
0002b0 6f 89 0e bc ca 17 91 ba 21 8e 28 bc 81 b5 f3 bb
       -0.008699759 -0.0011069712 -0.010287792 -0.0074374084
0002c0 1a e8 31 bc 71 ff d7 3c d0 01 9c b8 35 78 65 bc
       -0.01085856 0.026366921 -7.438997e-05 -0.01400571
0002d0 7c 61 2a bc 8f d9 1e 3c d2 73 33 ba 29 99 7c 3c
       -0.010399219 0.009695425 -0.00068455667 0.015417376
0002e0 87 2e 4c bb 36 19 e3 3b 1c 4b 61 bc e7 3c 91 bc
       -0.0031155662 0.0069304956 -0.013750818 -0.017729236
0002f0 52 1e a4 bc 72 b3 dc bc ea 46 0e 3d f8 b7 29 bb
       -0.02003399 -0.026941035 0.034735598 -0.0025897007
000300 27 de 17 3b 64 67 6f bb 8d 28 45 bb 5c 6a 67 bc
       0.0023173185 -0.0036530131 -0.0030083985 -0.014124479
000310 74 85 f6 3c 9e ab 22 bb 44 7a 19 3c ce 34 4c bc
       0.030092932 -0.002482153 0.009367529 -0.0124637615
000320 c9 8b bc bc a1 00 2c bc 31 ab 93 3b ad 11 37 bc
       -0.023015874 -0.010498197 0.0045064916 -0.011173648
000330 a7 8a 26 bc 73 1f 1c bc 3d a5 df ba 3a 78 5f 3b
       -0.010164893 -0.009528982 -0.0017062795 0.003409876
000340 1c 2b f3 3b d8 6b 06 3d ee 45 84 bc 08 32 4a 3c
       0.0074209105 0.03281769 -0.016146626 0.01234103
000350 a0 f1 dd 3b 86 da 77 bb 73 f6 68 bc dc 2e 03 3b
       0.0067731887 -0.003781946 -0.014218914 0.0020016944
000360 8a 4d 06 3c 09 95 da 3a af 3b 8e 3c 31 b8 1b bc
       0.008197198 0.0016676496 0.017362444 -0.009504364
000370 10 08 86 bc 7a bc 8c ba 6b 6a 0d bb 43 b3 2b 3b
       -0.016361266 -0.0010737323 -0.0021578323 0.0026199378
000380 eb eb 60 3c a9 91 b6 bb 9f b6 1f 3d 80 36 04 3c
       0.013728122 -0.0055715633 0.03899252 0.008069634
000390 d5 ae 9f 3c 4e 82 c4 3b 72 5c 3f 3b 1a 60 35 bc
       0.019492546 0.005996979 0.0029199389 -0.011070276
0003a0 44 08 74 3b a6 31 2a 3d 33 a2 76 3c be 0f 84 3b
       0.0037236372 0.041551255 0.01505332 0.004030197
0003b0 4e 74 0e 3c 4f 31 ad 3c 69 00 a6 bb 40 43 65 3c
       0.008694721 0.021141676 -0.005065967 0.013993084
0003c0 3f 82 a3 3c 8d 95 00 bd 4a bf 1b bc 29 a2 3a bb
       0.019959567 -0.031392623 -0.009506056 -0.0028478003
0003d0 36 0b 66 3c 53 e9 4d 3c 43 80 42 3c b9 b2 a5 3c
       0.014040759 0.012567836 0.0118714 0.020226823
0003e0 a7 3f d6 3b e1 e0 27 bb cb ce a1 bc 92 ab 1a bc
       0.0065383497 -0.0025616216 -0.019751927 -0.00944032
0003f0 c6 ac 2b bc 67 57 59 bb 82 97 ef ba 46 ee 78 3a
       -0.010478204 -0.0033163668 -0.0018279406 0.0009495955

fc.bias f4 [5]
000000 ab 64 07 bc 4d 1d 24 3c b4 4a 56 bb 76 19 37 3a
       -0.008263747 0.0100167515 -0.0032698335 0.000698469
000010 67 e5 a9 3b
       0.0051848176
