pretrained_models/best_CIFAR10_checkpoint.model (torch, 328256 bytes, 16 tensors)

conv1.weight f4 [12, 3, 3, 3]
9.734074e-05 -0.000107343294 0.000285423 -0.0043249414 0.014741963 8.025292e-05 0.007114311 0.021279106
0.0011464163 -0.0018442255 -0.00031750643 -0.00017718223 -0.024019131 0.015069524 0.0022572295 0.019719603
-0.013601828 2.181207e-05 -0.0019611542 0.00014941135 -0.00020786597 -0.0019887974 -0.0019300139 0.0053278673
-0.00047783367 -0.0019950785 0.012078351 -0.008548136 -0.0018403553 -0.0005629825 0.021003624 0.014425273
-0.01556952 0.01294323 0.00033167456 0.0013175838 -0.00063295657 -0.0003345817 1.8119657e-05 -0.028684586
-0.011806961 -0.0022958806 -1.10511355e-05 -0.0009591002 -0.0013163696 -0.0015570958 -0.00051124935 -0.00035736637
0.012557289 -0.017322557 0.005660367 0.0010196336 -0.0015358801 -0.001892813 -0.0064076777 0.001102834
0.00091451866 -0.0027857774 -0.0037612035 0.008095445 -0.00327494 0.0051841615 0.024043852 0.0032866981
-0.01544829 0.0012422637 0.00035373998 -0.00042299466 -0.00059854734 -0.0014874181 -0.014412825 0.00486801
0.005923452 0.005892697 0.009132352 0.0032648947 0.0031933899 0.0025060668 -0.011990381 -0.026951972
0.010597749 0.047613814 -0.015577525 -0.02260386 -0.0019713591 0.025328599 -0.006463338 -5.363323e-05
-0.0004106163 0.00020683123 0.0078029926 -0.003336528 -0.009077353 -0.015675757 -0.009201865 0.011238367
0.0006740687 0.000577299 0.0005937002 0.0003652391 0.0009517302 0.00013545743 0.00017974063 -0.0002289627
-1.32545965e-05 -0.007683757 0.014322111 -0.00029280834 -0.0016722457 0.027855687 0.0020069284 0.035239596
-0.003459163 -0.00036321243 -0.04446372 -0.0067408113 -0.02491744 0.0011070409 0.027238857 -0.030267522
0.013960547 0.0026567732 -0.00048222436 -0.0073196352 -0.0021343883 -0.00084657135 0.008928263 -0.046687465
0.023320464 0.02136585 0.013143688 0.008277466 0.037986763 0.0074601886 0.014257776 -0.027814118
-0.01540689 0.0033602782 -0.0059726844 0.008188199 -0.0010942704 0.0057348115 0.023630073 -0.0050933743
-0.012278079 0.07169901 0.031984016 -0.015046648 -0.028934544 -0.011786075 -0.0014580374 0.0050222245
-0.0040807943 -0.0064183855 -0.005490684 -0.055882044 0.014343743 -0.0014660879 -0.020224689 -0.011751585
0.012967454 -0.0022422294 -0.00037793748 -0.0023037456 -0.001819513 -0.000531023 0.0030491715 0.0004482231
-0.0008007507 0.0031784829 -0.00031246178 0.0049348148 0.0007101705 -0.00030279992 -0.00082035176 0.0027750651
0.0009948447 -0.0024619116 0.00080982165 0.00044729107 -0.010490945 0.00051108864 -0.0017953085 0.0007657372
0.0010784816 -0.00074104726 -0.0046324707 0.004265252 -0.012404462 -0.009842216 -0.000104725186 9.822336e-05
0.006146802 0.064615615 0.07609682 -0.114649154 0.07185377 0.09711709 0.0073347013 -0.035888523
-5.1774117e-05 0.012256031 -0.0059879352 -0.04997626 0.08966702 -0.015023001 -0.04061696 -0.013558806
0.0010824195 -0.068675496 0.08394578 0.004283443 -0.071143076 -0.053770315 -0.061710585 -0.06127905
0.074221574 0.051257975 -0.057371948 -0.010827014 0.043975156 0.011179576 -0.0017935862 -0.002224558
-0.0056736832 0.05953094 0.006496565 0.010672062 -0.0011743568 0.013827274 -0.043101255 0.0029246898
-0.002623207 -0.0048278263 -0.055369765 -0.068763874 0.07926595 0.014577878 -0.06648077 -0.0019924482
-0.0018054399 -0.031834345 0.021321556 -0.006624413 0.00085513364 0.004324506 0.007799416 -0.031588253
0.0005741575 0.0034153166 0.00023597186 0.0024109192 0.0014255915 0.0019008628 -0.020034513 -0.003773329
00000000: 6923 cc38 7e1d e1b8 d4a4 9539 3db8 8dbb
00000010: 4688 713c 754d a838 2b1f e93b 8551 ae3c
00000020: 5943 963a f0b9 f1ba fe76 a6b9 fec9 39b9
00000030: c5c3 c4bc 2ae6 763c 07ee 133b 018b a13c
00000040: 34da 5ebc 10f9 b637 b586 00bb 4eab 1c39
00000050: 99f6 59b9 7c56 02bb 85f8 fcba 6495 ae3b
00000060: c085 fab9 ddbf 02bb 47e4 453c 7b0d 0cbc
00000070: 1438 f1ba 1e95 13ba cb0f ac3c fb57 6c3c
00000080: 4d17 7fbc d70f 543c 9be4 ad39 c7b2 ac3a
00000090: ffec 25ba cc6a afb9 abff 9737 f0fb eabc
000000a0: fc71 41bc 7c76 16bb 4468 39b7 206c 7bba
000000b0: 098a acba 7717 ccba 5d05 06ba e75c bbb9
000000c0: 16bd 4d3c 09e8 8dbc 9a7a b93b 3aa5 853a
000000d0: 964f c9ba 4418 f8ba 7ff7 d1bb f88c 903a
000000e0: 4fbc 6f3a 9791 36bb 867e 76bb c2a2 043c
000000f0: 60a0 56bb e6df a93b 9df7 c43c a565 573b
00000100: d31a 7dbc 74d3 a23a 2d76 b939 62c5 ddb9
00000110: d5e7 1cba 78f5 c2ba c523 6cbc d483 9f3b
00000120: 8419 c23b 8617 c13b dc9f 153c d8f7 553b
00000130: 3148 513b d33c 243b 4e73 44bc 62ca dcbc
00000140: 2ea2 2d3c b406 433d e038 7fbc bb2b b9bc
00000150: eb31 01bb ec7d cf3c 69ca d3bb 3ef4 60b8
00000160: fd47 d7b9 d6e0 5839 3fb0 ff3b a7a9 5abb
00000170: 2eb9 14bc 726a 80bc 6bc3 16bc 2121 383c
00000180: fcb3 303a e155 173a 8ca2 1b3a 907d bf39
00000190: 887d 793a 9409 0e39 c278 3c39 b515 70b9
000001a0: 0f60 5eb7 07c8 fbbb 4aa7 6a3c 1284 99b9
000001b0: 412f dbba 9c31 e43c ac86 033b 6557 103d
000001c0: 20b3 62bb 8c6d beb9 971f 36bd 06e2 dcbb
000001d0: a91f ccbc 211a 913a 0624 df3c 98f3 f7bc
000001e0: c7ba 643c 421d 2e3b 0fd3 fcb9 8dd9 efbb
000001f0: 18e1 0bbb 71ec 5dba d947 123c 5b3b 3fbd
00000200: 8f0a bf3c 6f07 af3c a058 573c 359e 073c
00000210: 0298 1b3d 9974 f43b 7299 693c 6fda e3bc
00000220: 2e6d 7cbc 1d38 5c3b 82b6 c3bb cc27 063c
00000230: 9f6d 8fba 16eb bb3b db93 c13c 52e6 a6bb
00000240: ff29 49bc eed6 923d ac01 033d 3786 76bc
00000250: 2308 edbc 621a 41bc 9e1b bfba 7991 a43b
00000260: 2fb8 85bb 5251 d2bb 32eb b3bb 92e4 64bd
00000270: 0502 6b3c bf29 c0ba 3fae a5bc b889 40bc
00000280: 7275 543c 5ef2 12bb e925 c6b9 70fa 16bb
00000290: ba7c eeba 5a34 0bba 9cd4 473b 7cff ea39
000002a0: 78e9 51ba 184e 503b e9d1 a3b9 3ab4 a13b
000002b0: bc2a 3a3a 1ec1 9eb9 e00c 57ba dedd 353b
000002c0: 7365 823a 0658 21bb 364a 543a 6482 ea39
000002d0: 36e2 2bbc 94fa 053a 8f50 ebba c1bb 483a
000002e0: d65b 8d3a d742 42ba fbcb 97bb 87c3 8b3b
000002f0: 163c 4bbc 3f41 21bc e89f dbb8 44fd cd38
00000300: 1d6b c93b 3155 843d a6d8 9b3d 2dcd eabd
00000310: 1228 933d 53e5 c63d ef57 f03b d8ff 12bd
00000320: 0928 59b8 85cd 483c 7136 c4bb e8b3 4cbd
00000330: 58a3 b73d 0823 76bc f85d 26bd c125 5ebc
00000340: f9df 8d3a bda5 8cbd c4eb ab3d 205c 8c3b
00000350: 76b3 91bd 433e 5cbd 3dc4 7cbd beff 7abd
00000360: 7b01 983d e2f3 513d d9fe 6abd ca63 31bc
00000370: 4b1f 343d 8a2a 373c c416 ebba e4c9 11bb
00000380: 4eea b9bb b7d6 733d 23e1 d43b dfd9 2e3c
00000390: e0ec 99ba ca8b 623c f18a 30bd 27ac 3f3b
000003a0: 1cea 2bbb be32 9ebb 68cb 62bd 13d4 8cbd
000003b0: 3056 a23d 0dd8 6e3c 1227 88bd bc93 02bb
000003c0: 83a4 ecba bb64 02bd 8baa ae3c 9b11 d9bb
000003d0: 0c2b 603a 96b4 8d3b 3e92 ff3b af62 01bd
000003e0: 0f83 163a 81d3 5f3b 376f 7739 8300 1e3b
000003f0: eada ba3a 5f26 f93a 6b1f a4bc f549 77bb

conv1.bias f4 [12]
-3.4183753e-13 -6.9672756e-10 -1.987073e-09 1.4993461e-11 -1.9989677e-09 -8.6617655e-09 -2.4539557e-09 -8.021706e-13
-4.0856046e-10 -2.3194073e-10 -1.1281236e-08 -1.8075985e-08
00000000: fb6f c0aa d883 3fb0 f58c 08b1 46e2 832d
00000010: 365e 09b1 d9ce 14b2 72a2 28b1 7cca 61ab
00000020: c69b e0af 8305 7faf 67cf 41b2 8345 9bb2

bn1.weight f4 [12]
0.017336821 0.037750196 0.08298429 0.025493722 0.44005036 0.47042477 0.22041994 0.0006623057
0.18927477 0.06067006 0.25214425 0.32925254
00000000: f305 8e3c f39f 1a3d abf3 a93d 36d8 d03c
00000010: 484e e13e 84db f03e c4b5 613e 959e 2d3a
00000020: 3fd1 413e 2b81 783d 0d19 813e ca93 a83e

bn1.bias f4 [12]
-0.00040503923 0.009393655 0.015016255 0.018652463 0.015656868 0.012685919 -0.000814451 0.008219977
0.0001898809 0.014484883 0.022936756 0.012398557
00000000: 725b d4b9 d8e7 193c bd06 763c 0dcd 983c
00000010: d542 803c 9ad8 4f3c e280 55ba 15ad 063c
00000020: c41a 4739 0152 6d3c dde5 bb3c 5123 4b3c

bn1.running_mean f4 [12]
0.003183961 -0.0067923386 -0.0018533644 0.00050999696 0.01862574 -0.011768384 -0.0036910025 -0.045965113
-0.014043333 0.006663068 -0.0075137406 -0.00061860506
00000000: 00aa 503b 4492 debb 97ec f2ba 51b1 053a
00000010: 0295 983c 2ed0 40bc bfe4 71bb ea45 3cbd
00000020: 0216 66bc de55 da3b d335 f6bb e229 22ba

bn1.running_var f4 [12]
0.0023199162 0.00114495 0.0007394199 0.0007829306 0.008808392 0.0042410153 0.00032841455 0.03530325
0.009049902 0.0021754673 0.0020122644 0.00012445067
00000000: bc09 183b 2612 963a a1d5 413a 953d 4d3a
00000010: 1351 103c 37f8 8a3b 0e2f ac39 249a 103d
00000020: 0a46 143c 4992 0e3b 32e0 033b f97e 0239

conv2.weight f4 [20, 12, 3, 3]
0.008563051 0.00075197476 0.0011787177 0.012330891 0.00022593274 0.0072582294 -0.010392032 -0.0018643966
0.02327507 0.042433307 0.00083437446 0.00326781 -0.03341185 -0.022126565 0.006679307 -0.011412521
0.00819318 -0.022345386 0.02724357 0.013449734 0.008458695 0.011898463 -0.0011697018 0.0057726474
0.0039313287 0.004699136 0.0022774863 0.021092057 -0.020751908 0.012238126 0.011784321 -0.0034003109
-0.0036040097 -0.0073497184 -0.0047538606 0.0012088406 -0.0011302284 0.0008784784 0.0023590184 -0.008757691
-0.012343507 0.002239797 -0.015952675 0.027682636 -0.01018138 0.041173015 -0.0012609876 0.00521256
-0.008001859 0.0035685315 -0.0024513048 -0.004851178 0.00084530615 0.0012564369 0.023866137 -0.007577898
0.0057888045 -0.011073423 0.0033468772 0.0010278745 0.008741041 -0.0002245847 0.00088982855 0.0046076356
0.00035200958 -0.004910052 0.0071505574 0.0012247007 0.00024829688 0.0140877 -0.022792174 -0.009498708
0.0018913943 0.0036490497 0.003131585 -0.01496485 -0.0012575284 0.0052777855 -0.037674658 0.0253641
-0.011684437 0.0067748185 0.0014543075 0.009504721 0.018742763 -0.013642372 0.028127972 0.016971001
0.023358935 0.032703042 0.037830185 0.03304594 -0.002096949 -0.022659581 0.0077070137 0.011645912
-0.02729328 0.013670133 0.007847754 0.0068852394 0.004203769 0.004389863 -0.008192986 0.0030852524
0.00084443326 0.017318519 0.0120941745 0.022520231 0.00032045567 0.00034418926 0.00043946778 0.0004524996
0.0005200233 0.00057126925 0.0005698 0.000692206 0.00059464696 0.0013926169 0.0014433018 0.0013437049
0.0014500258 0.0015388242 0.0013049379 0.00060019165 0.00020225541 0.0014531121 0.0033094238 0.0041055246
0.0029847694 0.0030902943 0.0042888285 0.002633209 0.0018277116 0.0022905192 0.0013770323 0.002133172
0.0022355854 0.0021192378 0.001981799 0.0016411066 0.0013114685 0.0015685372 0.00054945966 0.0010441169
0.0049572703 0.0041939933 0.004474417 0.0034925772 0.0042061517 0.00625238 0.0062792264 0.005384809
0.0058986465 0.0065723723 0.0059318803 0.005145606 0.007848714 0.0043790634 0.006414151 0.0020893437
0.0027027582 0.002459202 0.0023154663 0.0018458979 0.001190174 0.0027863095 0.003513097 0.002409401
0.00096687063 0.0014759607 0.0013118949 0.00077891344 0.0006438351 0.00059026177 0.00067657314 0.00079630926
0.00070856937 0.0005557508 0.00024797497 0.00051945006 0.0037213934 0.003501546 0.0028554427 0.0040850206
0.0040125987 0.0037261487 0.0023624215 0.0027651358 0.003354117 0.0011257806 0.0014250057 0.0018865913
0.002974711 0.0028890304 0.0027634967 0.0019955032 0.0018205493 0.0014832164 0.0062039243 0.005627691
0.0037515268 0.004833415 0.0059003066 0.0034314098 0.0025569089 0.0025345003 0.0017989828 0.007123396
0.006741598 0.004962749 0.0052935625 0.006219185 0.0057082935 0.0013712848 0.0008353864 -0.00015123101
-0.009634898 -0.00033623568 -0.0058394135 -0.0010958046 0.01708362 0.0055805882 0.0002487617 0.0003408847
0.00022544197 3.3403056e-05 0.00046977506 0.0007891098 0.013698386 -0.0021759942 0.010350798 -0.0001619622
0.010312837 0.0036016062 0.0009918986 -0.004075261 0.0019504683 0.0017188339 0.027294252 0.003999893
-0.01605703 -0.0011024221 -0.00721295 -0.00083719817 -0.00017901219 0.0021318414 0.000661739 0.019721013
0.018474624 5.310845e-05 -0.01287855 -0.0030837085 0.031411093 -0.008233616 -0.0042912527 -0.002199289
00000000: 0a4c 0c3c 2c20 453a 347f 9a3a 8107 4a3c
00000010: 5ce8 6c39 71d6 ed3b 5743 2abc c55e f4ba
00000020: 5cab be3c 8cce 2d3d ecb9 5a3a c128 563b
00000030: ddda 08bd c542 b5bc 17de da3b 95fb 3abc
00000040: b03c 063c ac0d b7bc e82d df3c 465c 5c3c
00000050: 5796 0a3c c5f1 423c ae50 99ba 7a28 bd3b
00000060: 60d2 803b 36fb 993b e141 153b 40c9 ac3c
00000070: e8ff a9bc 6c82 483c 0613 413c c0d7 5ebb
00000080: 4031 6cbb e8d5 f0bb 46c6 9bbb f671 9e3a
00000090: 2c24 94ba b049 663a c399 1a3b 6b7c 0fbc
000000a0: 6c3c 4abc 8fc9 123b 2faf 82bc b2c6 e23c
000000b0: cecf 26bc 09a5 283d b947 a5ba 1fce aa3b
000000c0: 3b1a 03bc 06de 693b 12a6 20bb a1f6 9ebb
000000d0: 8997 5d3a 07af a43a eb82 c33c 0450 f8bb
000000e0: 03b0 bd3b 4d6d 35bc 4857 5b3b bfb9 863a
000000f0: 9536 0f3c 7f7e 6bb9 6243 693a a6fb 963b
00000100: ed8d b839 80e4 a0bb 394f ea3b 2386 a03a
00000110: d82d 8239 19d0 663c a7b6 babc 78a0 1bbc
00000120: a9e8 f73a e524 6f3b 473b 4d3b 212f 75bc
00000130: a7d3 a4ba 46f1 ac3b be50 1abd 5fc8 cf3c
00000140: 1570 3fbc 4cff dd3b 769e be3a b0b9 1b3c
00000150: 6c8a 993c 4184 5fbc a26c e63c c506 8b3c
00000160: 3d5b bf3c a0f3 053d d3f3 1a3d 2e5b 073d
00000170: f76c 09bb 96a0 b9bc 1e8b fc3b 7fce 3e3c
00000180: 2896 dfbc b2f8 5f3c de93 003c 939d e13b
00000190: c5bf 893b d7d8 8f3b e03b 06bc f231 4a3b
000001a0: f55c 5d3a 91df 8d3c a526 463c 597c b83c
000001b0: d502 a839 4d74 b439 5e68 e639 783d ed39
000001c0: 2c52 083a 3bc1 153a a15e 153a 2975 353a
000001d0: 15e2 1b3a 7888 b63a 2c2d bd3a 411f b03a
000001e0: cb0e be3a 5fb2 c93a 730a ab3a 2e56 1d3a
000001f0: 8614 5439 5a76 be3a ebe2 583b a387 863b
00000200: 1f9c 433b 8986 4a3b 4d89 8c3b eb91 2c3b
00000210: d38f ef3a 891c 163b 897d b43a b0cc 0b3b
00000220: e682 123b e9e2 0a3b 12e1 013b 661a d73a
00000230: 95e5 ab3a 6097 cd3a 9d09 103a c0da 883a
00000240: 9970 a23b c46d 893b 219e 923b b9e3 643b
00000250: c2d3 893b c4e0 cc3b f8c1 cd3b 0d73 b03b
00000260: 6f49 c13b 0e5d d73b 3860 c23b 799c a83b
00000270: e497 003c 3f7e 8f3b cc2d d23b 5fed 083b
00000280: c220 313b 902a 213b 14bf 173b 0ef2 f13a
00000290: 9dff 9b3a 849a 363b fd3b 663b 0ae7 1d3b
000002a0: 9775 7d3a 0675 c13a e3f3 ab3a ff2f 4c3a
000002b0: 0bc7 283a ccbb 1a3a 0e5c 313a 69bf 503a
000002c0: 49bf 393a ceaf 113a a302 8239 b42b 083a
000002d0: 9fe2 733b 327a 653b 6122 3b3b a3db 853b
000002e0: 1e7c 833b 6732 743b dbd2 1a3b 4837 353b
000002f0: bfd0 5b3b ee8e 933a 42c7 ba3a 8047 f73a
00000300: 5ef3 423b e355 3d3b c81b 353b fdc6 023b
00000310: 7f9f ee3a 7c68 c23a 4a4a cb3b 7e68 b83b
00000320: 2ddc 753b a061 9e3b 5c57 c13b 81e1 603b
00000330: d091 273b dc19 263b d9cb eb3a 606b e93b
00000340: 9fe8 dc3b 8e9e a23b 9f75 ad3b 4eca cb3b
00000350: a30c bb3b afbc b33a d5fd 5a3a c493 1eb9
00000360: b1db 1dbc ca48 b0b9 8d58 bfbb 1aa1 8fba
00000370: f3f2 8b3c 5edd b63b 3b6c 8239 c5b8 b239
00000380: 9e64 6c39 421a 0c38 244c f639 43dc 4e3a
00000390: 326f 603c 209b 0ebb 6596 293c 66d4 29b9
000003a0: 2cf7 283c ed08 6c3b 9802 823a c489 85bb
000003b0: dba6 ff3a 7f4a e13a 3298 df3c 8911 833b
000003c0: 088a 83bc 267f 90ba 9c5a ecbb 6b77 5bba
000003d0: 38b5 3bb9 5db6 0b3b 8d78 2d3a f68d a13c
000003e0: 1858 973c c4c0 5e38 8e00 53bc 0b18 4abb
000003f0: eba8 003d 4ae6 06bc a39d 8cbb f221 10bb

conv2.bias f4 [20]
0.018848546 0.084815234 0.0056928913 0.0093828915 0.055742458 -0.0152153615 0.023019139 0.044040028
-0.03403612 -0.036631327 0.025819719 -0.003019394 0.11507499 0.013833306 -0.008685047 0.035611972
0.050046306 -0.008459413 0.0026817354 -0.007794261
00000000: 4468 9a3c 9cb3 ad3d 6f8b ba3b b3ba 193c
00000010: 3452 643d da49 79bc a292 bc3c 5163 343d
00000020: 7569 0bbd bb0a 16bd e083 d33c 06e1 45bb
00000030: 70ac eb3d 17a5 623c ba4b 0ebc dcdd 113d
00000040: 5bfd 4c3d 5a99 0abc 0ec0 2f3b 0067 ffbb

conv3.weight f4 [32, 20, 3, 3]
-0.006807392 -0.0072121476 -0.0010463493 -0.00075273146 0.0033222756 0.0027287577 -0.0037591672 0.0006718046
0.0031607975 -0.010361001 -0.0028874567 -0.00071402645 -0.008306492 0.0014917599 0.004389939 -0.005093199
0.0038547462 0.006679599 0.025155168 -0.0019056324 0.0049943863 -0.03514644 -0.0004862667 0.008256991
-0.0099841785 -0.00085014966 0.0068179606 -0.0027565379 0.0034034627 -0.0017644671 0.0022041698 0.004040334
0.0016494456 0.0010015769 -0.00024474974 0.00071483676 -0.013269899 -0.003237884 -0.0046679103 0.0019886661
0.0046602325 0.015975272 0.018030657 0.0052438746 -0.005964453 -0.03743232 0.0006670272 -0.0002968269
-0.018238185 0.0027635605 0.0014417056 0.0013987646 0.005659725 -0.0021438445 -0.034071546 -0.030675646
-0.014737893 -0.013645839 0.015581599 0.015935626 -0.013498243 -0.027664732 0.0036426263 -0.0021274684
-0.0033380138 0.0046394207 0.004622129 -0.003664544 0.0041672643 0.0023149322 0.0065222504 0.008042876
0.001120923 0.00055527326 0.000100306235 0.0088110985 -0.001019824 -0.001346951 -0.0035560543 -0.0017679553
-0.0024797262 -0.0047225086 0.009280395 0.011236496 -0.02588796 0.005182879 -0.0410198 -0.005933783
-0.02522926 0.010158168 -0.001354225 0.0042585097 -0.019025914 0.0030002918 -0.00029823527 -0.019508865
-0.0012730694 -0.002296045 0.014670592 -0.021391511 0.014789993 0.0066662347 -0.009900934 -0.00087713863
4.2522966e-05 0.015623555 -0.0014637177 0.0010988851 -0.016541641 -0.00499852 -0.0013860093 -0.011751007
0.002354043 0.0068749897 -0.0080370195 0.0056559993 0.010168843 -0.0053660558 -0.017517155 -0.027690023
0.0026858286 0.016598536 0.009740482 0.0056455554 0.014268171 0.0051876404 0.005173635 0.0010675259
-0.0006539163 -0.0031536194 -0.0018075797 -0.00020722703 -0.00018003564 -0.0025003438 0.002906054 -0.0074544465
-0.0029728378 -0.003599345 -0.003068375 5.8211517e-05 0.0012971781 -0.00056419836 0.0022571702 0.0026412597
0.0031895167 0.00371606 0.004442152 -0.0011385363 0.00017992817 0.0036406019 -0.0012662039 -0.020621499
-0.0029412305 0.001729886 0.00010108388 0.0005368533 0.0002657701 0.0018927479 0.0007043032 0.00017317492
-0.00016184886 1.828227e-05 0.008026272 -0.0073650177 -0.0037446702 0.03783482 0.007270436 0.00046284593
0.051451 9.550904e-05 0.0027773664 -0.01081091 0.00873814 -0.00049853825 -6.0252846e-06 -0.003627652
-0.00018595546 -0.001043552 -0.004761933 -0.0065111713 0.000476715 -0.00020727506 -0.0017600962 0.0012586513
0.0008321199 -9.4884155e-05 0.0018641719 0.0012550303 -2.8387785e-05 0.0012243045 -0.0004206302 -0.0031721222
0.0012545092 -0.0006895784 -0.0044180923 0.0046205893 0.002777305 -0.0011753145 -0.002151792 -0.01720016
0.007138387 -0.010502531 -0.0019518282 0.0019431395 0.00058076286 -0.0011156311 -0.00043422924 6.4729065e-05
-0.0005745694 -0.0015026759 -0.000701529 -0.0010655429 -0.0019788228 -0.00019278588 -0.0004104358 -0.0032148708
0.041432496 -0.019473203 -0.012787713 -0.01431898 -0.017238282 -0.00497905 0.008582683 0.008011804
0.014759582 -0.0014544852 -0.0048179165 -0.005868578 -0.0024613691 -0.0043260376 -0.0059857545 -0.0004350521
-0.0022617448 -0.013818346 0.02813233 -0.007188434 -0.030750342 0.0064407247 0.015264981 -0.019498205
0.011271414 0.024988158 0.025188167 0.0012144538 -0.001092098 -0.0028426365 0.000876716 -0.0035996675
-0.001133883 0.0032116727 0.0014668817 -0.0068880734 0.00043456702 0.005317055 -0.0044505997 0.0034655165
00000000: 8b10 dfbb e153 ecbb a825 89ba f452 45ba
00000010: 89ba 593b f5d4 323b 5c5c 76bb 0b1c 303a
00000020: 6225 4f3b 30c1 29bc 7c3b 3dbb 812d 3bba
00000030: f417 08bc 2887 c33a 7ad9 8f3b dae4 a6bb
00000040: e99f 7c3b 8ae0 da3b 3612 ce3c 6ac6 f9ba
00000050: f3a7 a33b b7f5 0fbd 9df1 feb9 5548 073c
00000060: ae94 23bc 94dc 5eba 3369 df3b 08a7 34bb
00000070: a10c 5f3b b145 e7ba d573 103b c764 843b
00000080: 3632 d83a 5847 833a c151 80b9 e263 3b3a
00000090: fe69 59bc ae32 54bb 45f5 98bb 4854 023b
000000a0: ddb4 983b 93de 823c 07b5 933c cfd4 ab3b
000000b0: 7571 c3bb a252 19bd 70db 2e3a 6f9f 9bb9
000000c0: 3f68 95bc da1c 353b 9df7 bc3a c056 b73a
000000d0: 3775 b93b be7f 0cbb 9b8e 0bbd 7e4b fbbc
000000e0: 3477 71bc cc92 5fbc f749 7f3c 6e8b 823c
000000f0: bc27 5dbc 26a1 e2bc 21b9 6e3b ff6c 0bbb
00000100: 94c2 5abb 4806 983b 3a75 973b d928 70bb
00000110: 8c8d 883b 1eb6 173b 9ab8 d53b 44c6 033c
00000120: efeb 923a c28f 113a 805b d238 6d5c 103c
00000130: 9dab 85ba 2d8c b0ba b10c 69bb bcba e7ba
00000140: e782 22bb 46bf 9abb cc0c 183c 4819 383c
00000150: fd12 d4bc 24d5 a93b 6104 28bd 2e70 c2bb
00000160: 98ad cebc 726e 263c 4080 b1ba f88a 8b3b
00000170: 3cdc 9bbc 8ba0 443b 765c 9cb9 0ed1 9fbc
00000180: 1fdd a6ba 3e79 16bb ec5c 703c 403d afbc
00000190: ba51 723c 6e70 da3b 8737 22bc c7ef 65ba
000001a0: b05a 3238 f0f9 7f3c 37da bfba 7708 903a
000001b0: 5682 87bc a0ca a3bb c1aa b5ba 4c87 40bc
000001c0: 4a46 1a3b 9847 e13b b4ad 03bc f655 b93b
000001d0: 389b 263c bdd5 afbb 2380 8fbc 30d6 e2bc
000001e0: ba04 303b a7f9 873c 8b96 1f3c 5afe b83b
000001f0: 0cc5 693c 15fd a93b 9987 a93b 3aec 8b3a
00000200: 946b 2bba f4ac 4ebb 4fec ecba 154b 59b9
00000210: f3c7 3cb9 cfdc 23bb 7f73 3e3b 6e44 f4bb
00000220: f1d3 42bb fde2 6bbb ca16 49bb 2428 7438
00000230: 1306 aa3a b6e6 13ba 08ed 133b fc18 2d3b
00000240: 3607 513b 2489 733b 798f 913b f03a 95ba
00000250: 1aab 3c39 2a97 6e3b c1f6 a5ba 6bee a8bc
00000260: a9c1 40bb 58bd e23a fffc d338 9dbb 0c3a
00000270: 0f57 8b39 1516 f83a fda0 383a 4a96 3539
00000280: f9b5 29b9 e05c 9937 a080 033c 3f56 f1bb
00000290: 2469 75bb aff8 1a3d d63c ee3b 21aa f239
000002a0: 49be 523d 074c c838 7a04 363b 3e20 31bc
000002b0: 6a2a 0f3c 56b0 02ba cd2c cab6 e7bd 6dbb
000002c0: 0afd 42b9 cbc7 88ba fd09 9cbb aa5b d5bb
000002d0: 9bef f939 fa57 59b9 07b3 e6ba 54f9 a43a
000002e0: 9f22 5a3a 8bfc c6b8 3b57 f43a d47f a43a
000002f0: 4e22 eeb7 d878 a03a 0888 dcb9 61e3 4fbb
00000300: 586e a43a d3c4 34ba a5c5 90bb 5068 973b
00000310: 7203 363b 030d 9aba 1405 0dbb 5ae7 8cbc
00000320: 21e9 e93b cf12 2cbc 7dd4 ffba f1b0 fe3a
00000330: 563e 183a 5e3a 92ba 43a9 e3b9 27bf 8738
00000340: b39e 16ba 70f5 c4ba d0e6 37ba b0a9 8bba
00000350: 23af 01bb 9126 4ab9 c32f d7b9 95b0 52bb
00000360: 1fb5 293d 4486 9fbc 8e83 51bc 289a 6abc
00000370: 4c37 8dbc 4c27 a3bb 629e 0c3c f143 033c
00000380: 2cd2 713c 6da4 beba 9ddf 9dbb 334d c0bb
00000390: ec4e 21bb 6fc1 8dbb 2624 c4bb b417 e4b9
000003a0: c839 14bb 5866 62bc c675 e63c f48c ebbb
000003b0: 24e8 fbbc b70c d33b f919 7a3c b3ba 9fbc
000003c0: bdab 383c f7b3 cc3c 6a57 ce3c 4f2e 9f3a
000003d0: ba24 8fba 874b 3abb 6ad3 653a 66e8 6bbb
000003e0: cd9e 94ba ed7a 523b 6244 c03a 59b5 e1bb
000003f0: 99d6 e339 b13a ae3b 56d6 91bb b81d 633b

conv3.bias f4 [32]
-1.7268874e-07 1.1652453e-08 -3.882721e-07 -8.822539e-11 -4.920681e-08 4.3158888e-08 -1.7440975e-07 -1.043567e-07
-2.1877947e-08 1.9018863e-08 -2.7938208e-07 -2.0687986e-08 -4.226598e-07 -3.1101322e-08 -1.2482752e-07 -4.9545456e-08
1.1131174e-08 -3.437243e-08 -2.8139233e-09 -1.0777598e-08 -8.266457e-08 -2.0021595e-09 -1.6597404e-08 -1.3333803e-08
-4.703378e-08 -6.5128816e-08 -5.067652e-09 -9.04843e-09 -3.6376083e-08 -9.017029e-08 -1.3204307e-07 -2.3925141e-08
00000000: 526c 39b4 0830 4832 b673 d0b4 7b02 c2ae
00000010: 7657 53b3 b35d 3933 6345 3bb4 b41a e0b3
00000020: 1dee bbb2 ec5e a332 fbfd 95b4 5db5 b1b2
00000030: ece9 e2b4 4494 05b3 5408 06b4 cecb 54b3
00000040: 6c3b 3f32 e3a0 13b3 105f 41b1 6128 39b2
00000050: 5485 b1b3 5d96 09b1 1492 8eb2 b012 65b2
00000060: 3002 4ab3 f2dc 8bb3 8a1f aeb1 6a73 1bb2
00000070: ed3b 1cb3 a4a3 c1b3 b9c7 0db4 f183 cdb2

bn3.weight f4 [32]
0.569459 0.19927208 0.61516076 0.020737924 0.6611525 0.6992868 0.32696155 0.3183218
0.12786567 0.7192 0.6136153 0.07776179 0.672134 0.1369221 0.46645638 0.17331088
0.06826818 0.12237262 0.0716992 0.11530246 0.35351637 0.12182071 0.023143716 0.06441601
0.63046765 0.31155914 0.28925163 0.07198671 0.22869001 0.5497729 0.45478547 0.08331708
00000000: 11c8 113f fb0d 4c3e 2d7b 1d3f 94e2 a93c
00000010: 4a41 293f 7604 333f 8167 a73e 13fb a23e
00000020: 38ef 023e 7e1d 383f e415 1d3f 9341 9f3d
00000030: f910 2c3f 4f35 0c3e 5fd3 ee3e 6878 313e
00000040: 30d0 8b3d 7f9e fa3d 08d7 923d b223 ec3d
00000050: 1900 b53e 237d f93d e497 bd3c 8bec 833d
00000060: 5466 213f ae84 9f3e ca18 943e c56d 933d
00000070: b72d 6a3e ebbd 0c3f a4d9 e83e 25a2 aa3d

bn3.bias f4 [32]
0.01881059 0.026336113 0.008936956 0.059715513 0.014749309 0.014576117 0.019131623 0.026776867
0.03181221 0.014313783 0.019254355 0.03852273 0.016388398 0.046065167 0.021304494 0.03267761
0.0526511 0.03734327 0.030502403 0.034013543 0.02396111 0.04089819 0.05708253 0.027879864
0.0052699684 0.027376562 0.029898593 0.051420618 0.017285138 0.010430866 0.013051233 0.045628816
00000000: ab18 9a3c d5be d73c 4f6c 123c 4198 743d
00000010: 16a7 713c aad0 6e3c ecb9 9c3c 295b db3c
00000020: 854d 023d 5b84 6a3c 4fbb 9d3c 03ca 1d3d
00000030: f640 863c d4ae 3c3d c386 ae3c f5d8 053d
00000040: aea8 573d 42f5 183d 2de0 f93c c951 0b3d
00000050: 174a c43c dc84 273d 5fcf 693d 5064 e43c
00000060: b3af ac3b d044 e03c e5ed f43c 6d9e 523d
00000070: 9099 8d3c 39e6 2a3c d7d4 553c 48e5 3a3d

bn3.running_mean f4 [32]
-0.010717614 -0.0026334613 -0.016282635 0.009630239 -0.018399123 0.005292501 -0.01878081 0.0017655132
-0.010591351 -0.039592102 -0.0058586476 0.0048695584 -0.02874497 -0.017447988 0.0019089114 -0.0049649556
0.014920924 -0.0071646026 0.01240922 -0.00079314114 -0.012954384 -0.0015747836 0.0058465227 -0.0083603095
0.0042992784 0.0037887534 0.010695371 -0.019172687 -0.008484112 -0.012621355 -0.042454753 -0.008642203
00000000: ee98 2fbc 2696 2cbb 2963 85bc 26c8 1d3c
00000010: c2b9 96bc b76c ad3b 37da 99bc cb68 e73a
00000020: 5987 2dbc 542b 22bd e6f9 bfbb d190 9f3b
00000030: 927a ebbc 15ef 8ebc 7034 fa3a 11b1 a2bb
00000040: e476 743c 0bc5 eabb 0b50 4b3c cdea 4fba
00000050: a03e 54bc f868 ceba 3094 bf3b aef9 08bc
00000060: f6e0 8c3b bc4c 783b a33b 2f3c 0a10 9dbc
00000070: f200 0bbc cdc9 4ebc 09e5 2dbd 0798 0dbc

bn3.running_var f4 [32]
6.0452996e-05 7.948428e-05 0.00011152299 1.9554542e-05 0.000108745655 0.00010039425 6.113248e-05 6.690097e-05
5.9874186e-05 0.00012969959 9.9700344e-05 3.261574e-05 9.571553e-05 4.4722525e-05 6.7013025e-05 5.4366374e-05
4.34124e-05 4.2462718e-05 8.107795e-05 4.8954822e-05 6.704942e-05 7.040241e-05 1.4805546e-05 7.092089e-05
0.00015377726 6.9120186e-05 6.635274e-05 9.72227e-05 3.5639117e-05 7.269078e-05 0.00012468675 3.5096862e-05
00000000: e98e 7d38 ccb0 a638 73e1 e938 0f09 a437
00000010: 610e e438 c18a d238 4034 8038 2f4d 8c38
00000020: 6b21 7b38 f8ff 0739 3716 d138 e2cc 0838
00000030: e2ba c838 7294 3b38 5889 8c38 7307 6438
00000040: b615 3638 ff19 3238 6508 aa38 d754 4d38
00000050: e29c 8c38 02a5 9338 5665 7837 5dbb 9438
00000060: 453f 2139 9ef4 9038 db26 8b38 0ae4 cb38
00000070: 367b 1538 9171 9838 58be 0239 f834 1338

fc.weight f4 [10, 7200]
0.020617347 0.013645845 0.018306945 0.011977023 0.017709384 0.0024031107 0.0011372266 0.0018284143
0.018372554 0.009232494 0.013463804 0.013342257 0.0010602595 -0.0010834734 0.005887627 0.004214049
0.0011878677 0.012078346 0.009866169 0.008337569 0.012977001 0.008126627 0.0065403716 0.010661177
-0.002511572 0.017661529 0.015026313 0.0012476727 0.0006435841 0.00017495178 0.0150994845 0.013243163
0.011512953 0.0125401765 0.0054523093 0.009168832 0.010615997 0.01030029 0.0047206962 0.0043179654
-0.001654886 -0.0022526064 0.00831525 0.0033479864 0.006195601 0.016527843 0.014569138 0.0063166535
0.016012795 0.009048804 -0.0006003704 0.00093170884 0.008690049 0.014838072 -0.0031257393 0.004385351
-0.0008192816 0.0032965122 0.0006630052 0.010203283 0.012625878 0.016413275 -0.00046073398 0.010826266
0.01220449 0.0010785956 0.009950824 -0.003638101 -0.001421192 -0.001487254 -0.0035935107 0.015652318
-0.0019861308 0.0021163044 0.01414257 0.016503636 0.011421235 0.014362489 0.00067169237 0.016228797
0.010596034 -0.0014808519 0.015691021 -0.0020560366 0.01346423 0.013604105 0.004390308 0.006176236
0.010736716 0.0031963394 0.0076447185 0.015012914 0.013099038 0.016199978 0.011849928 0.0075758696
0.011496519 0.015115535 0.00678333 0.014568155 -0.0010519824 0.0049602585 -0.00054834445 0.006581853
0.008616215 0.0064178323 0.013630009 0.0066921236 0.014095091 0.015763132 0.011053613 0.0088757025
0.0025562374 -0.0032655906 0.0047864644 0.0013886126 0.006882837 0.00012275559 0.00062788546 0.011905947
0.008031905 0.0013103972 0.0044456096 0.011597713 -0.0017268142 0.01315033 -0.00034075926 0.011618549
-0.003174239 0.0037849473 0.006947978 0.0100341905 0.008622751 0.0046026604 0.011202233 0.0055535887
0.017777259 0.014683948 0.009537703 0.000111809764 0.01144908 0.0059064873 0.00094318966 -0.0025315157
0.007923628 0.0015574332 0.006986095 -0.0034693503 -0.0007647854 0.009817321 0.016474294 0.017414505
0.012523053 3.519503e-05 0.0021172587 -0.0011605222 0.010558944 0.0022298584 0.004482438 -0.0043718764
0.012635863 -0.003304414 0.008004333 0.007054793 0.0035579249 0.015612039 0.015658297 0.013536389
0.007857346 0.00019364411 -0.0038553711 -0.00010151852 0.00015793197 0.0045634904 -0.0005285893 0.0035126975
0.010599662 0.011622093 0.0065855975 0.012301071 0.008106523 0.018042456 -0.00028496532 -0.0020871586
0.006413518 -0.0003042608 -0.0020743052 0.009999717 0.005795857 0.007159331 0.0032598397 0.012080837
0.00983611 0.009676617 0.0051274616 0.007793148 0.0110313995 0.009619071 0.004717497 0.0022269192
0.010634683 -0.003619902 0.0033627432 0.010253715 0.01188696 0.0065190434 -0.0031305389 0.004973549
0.014052234 0.0024081687 0.011144858 -0.003976897 0.0048298365 -0.0009481829 0.012825418 -0.003917102
0.0036699423 0.0069851247 0.0059773773 0.00682112 0.013972913 -0.001448976 0.009318534 -4.2757012e-05
-0.0034256752 0.0022977027 0.007623574 -0.0034260836 0.0019134376 -0.00422037 0.003707129 0.016250504
0.00897074 0.0001703846 0.0040775053 -0.0039946577 0.0047460105 -0.000247643 0.014047817 0.015030179
0.00028673452 0.011208186 0.0063890517 0.013514956 0.010283233 0.0019605935 0.011865037 0.011702003
0.012752373 0.011053042 0.0066390308 0.006851766 -0.0030772877 -0.0012345103 -0.0007125845 3.2826988e-06
00000000: b6e5 a83c d392 5f3c 72f8 953c 473b 443c
00000010: 4513 913c 827d 1d3b fe0e 953a 67a7 ef3a
00000020: 0a82 963c e343 173c 4997 5c3c 7b99 5a3c
00000030: 68f8 8a3a 5603 8eba ffec c03b 0116 8a3b
00000040: 3ab2 9b3a 41e4 453c b6a5 213c 4d9a 083c
00000050: 7d9d 543c 8b25 053c 9d50 d63b 38ac 2e3c
00000060: 3099 24bb e9ae 903c ed30 763c f388 a33a
00000070: 33b6 283a 4373 3739 d463 773c daf9 583c
00000080: d3a0 3c3c 5075 4d3c 49a9 b23b de38 163c
00000090: b8ee 2d3c 8cc2 283c 12b0 9a3b b87d 8d3b
000000a0: c2e8 d8ba 77a0 13bb b03c 083c e469 5b3b
000000b0: 7804 cb3b 6665 873c 65b3 6e3c eefb ce3b
000000c0: 442d 833c 6f41 143c 2d62 1dba ec3d 743a
000000d0: b560 0e3c 621b 733c 34d9 4cbb feb2 8f3b
000000e0: 0fc5 56ba 4c0a 583b 87cd 2d3a ac2b 273c
000000f0: c5dc 4e3c 2275 863c ab8e f1b9 a760 313c
00000100: 57f5 473c aa5f 8d3a c808 233c 356d 6ebb
00000110: 4a47 baba f7ef c2ba 1b81 6bbb 4a39 803c
00000120: bf29 02bb b2b1 0a3b 3db6 673c a232 873c
00000130: 2220 3b3c a550 6b3c 8314 303a 41f2 843c
00000140: fd9a 2d3c 2519 c2ba 758a 803c 92be 06bb
00000150: 1399 5c3c c1e3 5e3c 93dc 8f3b 0662 ca3b
00000160: 0de9 2f3c ad79 513b 8c80 fa3b baf8 753c
00000170: 599d 563c d1b5 843c 3326 423c 003f f83b
00000180: e55b 3c3c 26a7 773c b246 de3b 45af 6e3c
00000190: ace2 89ba aa89 a23b c6be 0fba 96ac d73b
000001a0: 062b 0d3c ae4c d23b 6750 5f3c 9a49 db3b
000001b0: 19ef 663c af21 813c 371a 353c 656b 113c
000001c0: 8c86 273b 8503 56bb c6d7 9c3b 1b02 b63a
000001d0: 6c89 e13b f4b7 0039 ae98 243a 2911 433c
000001e0: 4098 033c a2c1 ab3a 7aac 913b 5604 3e3c
000001f0: 4556 e2ba 7b74 573c efa7 b2b9 ba5b 3e3c
00000200: e506 50bb e10c 783b ddab e33b 7266 243c
00000210: 7046 0d3c ead1 963b 9289 373c e1fa b53b
00000220: 9da1 913c f194 703c 0744 1c3c 697b ea38
00000230: ec94 3b3c 358b c13b 6340 773a c9e7 25bb
00000240: 1bd2 013c c922 cc3a 9deb e43b 0a5e 63bb
00000250: e17b 48ba d4d8 203c 19f5 863c dda8 8e3c
00000260: 7e2d 4d3c 609e 1338 b5c1 0a3b aa1c 98ba
00000270: 6cff 2c3c d122 123b 6ae1 923b f541 8fbb
00000280: a706 4f3c de8e 58bb 9b24 033c e52b e73b
00000290: 132c 693b a3c9 7f3c d445 803c bbc7 5d3c
000002a0: 19bc 003c f20c 4b39 65aa 7cbb 57e6 d4b8
000002b0: 8a9a 2539 5589 953b 0791 0aba 4935 663b
000002c0: 34aa 2d3c 976a 3e3c ffcb d73b 6e8a 493c
000002d0: 39d1 043c c6cd 933c 6667 95b9 b6c8 08bb
000002e0: 7d28 d23b 3185 9fb9 11f1 07bb dad5 233c
000002f0: 2ceb bd3b d298 ea3b 09a3 553b b4ee 453c
00000300: a327 213c ac8a 1e3c 4404 a83b aa5d ff3b
00000310: 0bbd 343c 4f99 1d3c 3c95 9a3b 81f1 113b
00000320: 183d 2e3c e13b 6dbb 7861 5c3b 33ff 273c
00000330: 86c1 423c b39d d53b ba29 4dbb 27f9 a23b
00000340: 573b 663c 5ed2 1d3b ec98 363c a150 82bb
00000350: 9b43 9e3b 7a8f 78ba b421 523c 085b 80bb
00000360: 6a83 703b 79e3 e43b e0dd c33b b483 df3b
00000370: a5ee 643c 91eb bdba c4ac 183c fe55 33b8
00000380: 4b81 60bb 0e95 163b 2dcf f93b 2588 60bb
00000390: 50cc fa3a 084b 8abb 4ef3 723b c71f 853c
000003a0: 03fa 123c 45a9 3239 989c 853b 9ee5 82bb
000003b0: 6c84 9b3b 15d6 81b9 d128 663c 2441 763c
000003c0: db54 9639 8aa2 373c 405b d13b d66d 5d3c
000003d0: 017b 283c 4d7d 003b 9265 423c c2b9 3f3c
000003e0: 54ef 503c d117 353c 3a8c d93b c784 e03b
000003f0: 52ac 49bb 4bcf a1ba bccc 3aba 564c 5c36

fc.bias f4 [10]
0.016778527 -0.0060683573 -0.0071620205 -0.001958989 -0.011497007 -0.0028311799 -0.0024965052 -0.0021927666
-0.0010658564 -0.010617425
00000000: 1f73 893c 12d9 c6bb 62af eabb 6262 00bb
00000010: f15d 3cbc 518b 39bb 689c 23bb 85b4 0fbb
00000020: 35b4 8bba b5f4 2dbc
